…
6  0          ['block2a_expand_bn[0][0]']      \n"," ivation)                       )                                                                 \n","                                                                                                  \n"," block2a_dwconv_pad (ZeroPaddin  (None, 113, 113, 96  0          ['block2a_expand_activation[0][0]\n"," g2D)                           )                                ']                               \n","                                                                                                  \n"," block2a_dwconv (DepthwiseConv2  (None, 56, 56, 96)  864         ['block2a_dwconv_pad[0][0]']     \n"," D)                                                                                               \n","                                                                                                  \n"," block2a_bn (BatchNormalization  (None, 56, 56, 96)  384         ['block2a_dwconv[0][0]']         \n"," )                                                                                                \n","                                                                                                  \n"," block2a_activation (Activation  (None, 56, 56, 96)  0           ['block2a_bn[0][0]']             \n"," )                                                                                                \n","                                                                                                  \n"," block2a_se_squeeze (GlobalAver  (None, 96)          0           ['block2a_activation[0][0]']     \n"," agePooling2D)                                                                                    \n","                                                                                                  \n"," block2a_se_reshape (Reshape)   (None, 1, 1, 96)     0           ['block2a_se_squeeze[0][0]']     \n","                                                                                                  \n"," block2a_se_reduce (Conv2D)     (None, 1, 1, 4)      388         ['block2a_se_reshape[0][0]']     \n","                                                                                                  \n"," block2a_se_expand (Conv2D)     (None, 1, 1, 96)     480         ['block2a_se_reduce[0][0]']      \n","                                                                                                  \n"," block2a_se_excite (Multiply)   (None, 56, 56, 96)   0           ['block2a_activation[0][0]',     \n","                                                                  'block2a_se_expand[0][0]']      \n","                                                                                                  \n"," block2a_project_conv (Conv2D)  (None, 56, 56, 24)   2304        ['block2a_se_excite[0][0]']      \n","                                                                                                  \n"," block2a_project_bn (BatchNorma  (None, 56, 56, 24)  96          ['block2a_project_conv[0][0]']   \n"," lization)                                                                                        \n","                                                                                                  \n"," block2b_expand_conv (Conv2D)   (None, 56, 56, 144)  3456        ['block2a_project_bn[0][0]']     \n","                                                                                                  \n"," block2b_expand_bn (BatchNormal  (None, 56, 56, 144)  576        ['block2b_expand_conv[0][0]']    \n"," ization)                                                                                         \n","                                                                                                  \n"," block2b_expand_activation (Act  (None, 56, 56, 144)  0          ['block2b_expand_bn[0][0]']      \n"," ivation)                                                                                         \n","                                                                                                  \n"," block2b_dwconv (DepthwiseConv2  (None, 56, 56, 144)  1296       ['block2b_expand_activation[0][0]\n"," D)                                                              ']                               \n","                                                                                                  \n"," block2b_bn (BatchNormalization  (None, 56, 56, 144)  576        ['block2b_dwconv[0][0]']         \n"," )                                                                                                \n","                                                                                                  \n"," block2b_activation (Activation  (None, 56, 56, 144)  0          ['block2b_bn[0][0]']             \n"," )                                                                                                \n","                                                                                                  \n"," block2b_se_squeeze (GlobalAver  (None, 144)         0           ['block2b_activation[0][0]']     \n"," agePooling2D)                                                                                    \n","                                                                                                  \n"," block2b_se_reshape (Reshape)   (None, 1, 1, 144)    0           ['block2b_se_squeeze[0][0]']     \n","                                                                                                  \n"," block2b_se_reduce (Conv2D)     (None, 1, 1, 6)      870         ['block2b_se_reshape[0][0]']     \n","                                                                                                  \n"," block2b_se_expand (Conv2D)     (None, 1, 1, 144)    1008        ['block2b_se_reduce[0][0]']      \n","                                                                                                  \n"," block2b_se_excite (Multiply)   (None, 56, 56, 144)  0           ['block2b_activation[0][0]',     \n","                                                                  'block2b_se_expand[0][0]']      \n","                                                                                                  \n"," block2b_project_conv (Conv2D)  (None, 56, 56, 24)   3456        ['block2b_se_excite[0][0]']      \n","                                                                                                  \n"," block2b_project_bn (BatchNorma  (None, 56, 56, 24)  96          ['block2b_project_conv[0][0]']   \n"," lization)                                                                                        \n","                                                                                                  \n"," block2b_drop (Dropout)         (None, 56, 56, 24)   0           ['block2b_project_bn[0][0]']     \n","                                                                                                  \n"," block2b_add (Add)              (None, 56, 56, 24)   0           ['block2b_drop[0][0]',           \n","                                                                  'block2a_project_bn[0][0]']     \n","                                                                                                  \n"," block3a_expand_conv (Conv2D)   (None, 56, 56, 144)  3456        ['block2b_add[0][0]']            \n","                                                                                                  \n"," block3a_expand_bn (BatchNormal  (None, 56, 56, 144)  576        ['block3a_expand_conv[0][0]']    \n"," ization)                                                                                         \n","                                                                                                  \n"," block3a_expand_activation (Act  (None, 56, 56, 144)  0          ['block3a_expand_bn[0][0]']      \n"," ivation)                                                                                         \n","                                                                                                  \n"," block3a_dwconv_pad (ZeroPaddin  (None, 59, 59, 144)  0          ['block3a_expand_activation[0][0]\n"," g2D)                                                            ']                               \n","                                                                                                  \n"," block3a_dwconv (DepthwiseConv2  (None, 28, 28, 144)  3600       ['block3a_dwconv_pad[0][0]']     \n"," D)                                                                                               \n","                                                                                                  \n"," block3a_bn (BatchNormalization  (None, 28, 28, 144)  576        ['block3a_dwconv[0][0]']         \n"," )                                                                                                \n","                                                                                                  \n"," block3a_activation (Activation  (None, 28, 28, 144)  0          ['block3a_bn[0][0]']             \n"," )                                                                                                \n","                                                                                                  \n"," block3a_se_squeeze (GlobalAver  (None, 144)         0           ['block3a_activation[0][0]']     \n"," agePooling2D)                                                                                    \n","                                                                                                  \n"," block3a_se_reshape (Reshape)   (None, 1, 1, 144)    0           ['block3a_se_squeeze[0][0]']     \n","                                                                                                  \n"," block3a_se_reduce (Conv2D)     (None, 1, 1, 6)      870         ['block3a_se_reshape[0][0]']     \n","                                                                                                  \n"," block3a_se_expand (Conv2D)     (None, 1, 1, 144)    1008        ['block3a_se_reduce[0][0]']      \n","                                                                                                  \n"," block3a_se_excite (Multiply)   (None, 28, 28, 144)  0           ['block3a_activation[0][0]',     \n","                                                                  'block3a_se_expand[0][0]']      \n","                                                                                                  \n"," block3a_project_conv (Conv2D)  (None, 28, 28, 40)   5760        ['block3a_se_excite[0][0]']      \n","                                                                                                  \n"," block3a_project_bn (BatchNorma  (None, 28, 28, 40)  160         ['block3a_project_conv[0][0]']   \n"," lization)                                                                                        \n","                                                                                                  \n"," block3b_expand_conv (Conv2D)   (None, 28, 28, 240)  9600        ['block3a_project_bn[0][0]']     \n","                                                                                                  \n"," block3b_expand_bn (BatchNormal  (None, 28, 28, 240)  960        ['block3b_expand_conv[0][0]']    \n"," ization)                                                                                         \n","                                                                                                  \n"," block3b_expand_activation (Act  (None, 28, 28, 240)  0          ['block3b_expand_bn[0][0]']      \n"," ivation)                                                                                         \n","                                                                                                  \n"," block3b_dwconv (DepthwiseConv2  (None, 28, 28, 240)  6000       ['block3b_expand_activation[0][0]\n"," D)                                                              ']                               \n","                                                                                                  \n"," block3b_bn (BatchNormalization  (None, 28, 28, 240)  960        ['block3b_dwconv[0][0]']         \n"," )                                                                                                \n","                                                                                                  \n"," block3b_activation (Activation  (None, 28, 28, 240)  0          ['block3b_bn[0][0]']             \n"," )                                                                                                \n","                                                                                                  \n"," block3b_se_squeeze (GlobalAver  (None, 240)         0           ['block3b_activation[0][0]']     \n"," agePooling2D)                                                                                    \n","                                                                                                  \n"," block3b_se_reshape (Reshape)   (None, 1, 1, 240)    0           ['block3b_se_squeeze[0][0]']     \n","                                                                                                  \n"," block3b_se_reduce (Conv2D)     (None, 1, 1, 10)     2410        ['block3b_se_reshape[0][0]']     \n","                                                                                                  \n"," block3b_se_expand (Conv2D)     (None, 1, 1, 240)    2640        ['block3b_se_reduce[0][0]']      \n","                                                                                                  \n"," block3b_se_excite (Multiply)   (None, 28, 28, 240)  0           ['block3b_activation[0][0]',     \n","                                                                  'block3b_se_expand[0][0]']      \n","                                                                                                  \n"," block3b_project_conv (Conv2D)  (None, 28, 28, 40)   9600        ['block3b_se_excite[0][0]']      \n","                                                                                                  \n"," block3b_project_bn (BatchNorma  (None, 28, 28, 40)  160         ['block3b_project_conv[0][0]']   \n"," lization)                                                                                        \n","                                                                                                  \n"," block3b_drop (Dropout)         (None, 28, 28, 40)   0           ['block3b_project_bn[0][0]']     \n","                                                                                                  \n"," block3b_add (Add)              (None, 28, 28, 40)   0           ['block3b_drop[0][0]',           \n","                                                                  'block3a_project_bn[0][0]']     \n","                                                                                                  \n"," block4a_expand_conv (Conv2D)   (None, 28, 28, 240)  9600        ['block3b_add[0][0]']            \n","                                                                                                  \n"," block4a_expand_bn (BatchNormal  (None, 28, 28, 240)  960        ['block4a_expand_conv[0][0]']    \n"," ization)                                                                                         \n","                                                                                                  \n"," block4a_expand_activation (Act  (None, 28, 28, 240)  0          ['block4a_expand_bn[0][0]']      \n"," ivation)                                                                                         \n","                                                                                                  \n"," block4a_dwconv_pad (ZeroPaddin  (None, 29, 29, 240)  0          ['block4a_expand_activation[0][0]\n"," g2D)                                                            ']                               \n","                                                                                                  \n"," block4a_dwconv (DepthwiseConv2  (None, 14, 14, 240)  2160       ['block4a_dwconv_pad[0][0]']     \n"," D)                                                                                               \n","                                                                                                  \n"," block4a_bn (BatchNormalization  (None, 14, 14, 240)  960        ['block4a_dwconv[0][0]']         \n"," )                                                                                                \n","                                                                                                  \n"," block4a_activation (Activation  (None, 14, 14, 240)  0          ['block4a_bn[0][0]']             \n"," )                                                                                                \n","                                                                                                  \n"," block4a_se_squeeze (GlobalAver  (None, 240)         0           ['block4a_activation[0][0]']     \n"," agePooling2D)                                                                                    \n","                                                                                                  \n"," block4a_se_reshape (Reshape)   (None, 1, 1, 240)    0           ['block4a_se_squeeze[0][0]']     \n","                                                                                                  \n"," block4a_se_reduce (Conv2D)     (None, 1, 1, 10)     2410        ['block4a_se_reshape[0][0]']     \n","                                                                                                  \n"," block4a_se_expand (Conv2D)     (None, 1, 1, 240)    2640        ['block4a_se_reduce[0][0]']      \n","                                                                                                  \n"," block4a_se_excite (Multiply)   (None, 14, 14, 240)  0           ['block4a_activation[0][0]',     \n","                                                                  'block4a_se_expand[0][0]']      \n","                                                                                                  \n"," block4a_project_conv (Conv2D)  (None, 14, 14, 80)   19200       ['block4a_se_excite[0][0]']      \n","                                                                                                  \n"," block4a_project_bn (BatchNorma  (None, 14, 14, 80)  320         ['block4a_project_conv[0][0]']   \n"," lization)                                                                                        \n","                                                                                                  \n"," block4b_expand_conv (Conv2D)   (None, 14, 14, 480)  38400       ['block4a_project_bn[0][0]']     \n","                                                                                                  \n"," block4b_expand_bn (BatchNormal  (None, 14, 14, 480)  1920       ['block4b_expand_conv[0][0]']    \n"," ization)                                                                                         \n","                                                                                                  \n"," block4b_expand_activation (Act  (None, 14, 14, 480)  0          ['block4b_expand_bn[0][0]']      \n"," ivation)                                                                                         \n","                                                                                                  \n"," block4b_dwconv (DepthwiseConv2  (None, 14, 14, 480)  4320       ['block4b_expand_activation[0][0]\n"," D)                                                              ']                               \n","                                                                                                  \n"," block4b_bn (BatchNormalization  (None, 14, 14, 480)  1920       ['block4b_dwconv[0][0]']         \n"," )                                                                                                \n","                                                                                                  \n"," block4b_activation (Activation  (None, 14, 14, 480)  0          ['block4b_bn[0][0]']             \n"," )                                                                                                \n","                                                                                                  \n"," block4b_se_squeeze (GlobalAver  (None, 480)         0           ['block4b_activation[0][0]']     \n"," agePooling2D)                                                                                    \n","                                                                                                  \n"," block4b_se_reshape (Reshape)   (None, 1, 1, 480)    0           ['block4b_se_squeeze[0][0]']     \n","                                                                                                  \n"," block4b_se_reduce (Conv2D)     (None, 1, 1, 20)     9620        ['block4b_se_reshape[0][0]']     \n","                                                                                                  \n"," block4b_se_expand (Conv2D)     (None, 1, 1, 480)    10080       ['block4b_se_reduce[0][0]']      \n","                                                                                                  \n"," block4b_se_excite (Multiply)   (None, 14, 14, 480)  0           ['block4b_activation[0][0]',     \n","                                                                  'block4b_se_expand[0][0]']      \n","                                                                                                  \n"," block4b_project_conv (Conv2D)  (None, 14, 14, 80)   38400       ['block4b_se_excite[0][0]']      \n","                                                                                                  \n"," block4b_project_bn (BatchNorma  (None, 14, 14, 80)  320         ['block4b_project_conv[0][0]']   \n"," lization)                                                                                        \n","                                                                                                  \n"," block4b_drop (Dropout)         (None, 14, 14, 80)   0           ['block4b_project_bn[0][0]']     \n","                                                                                                  \n"," block4b_add (Add)              (None, 14, 14, 80)   0           ['block4b_drop[0][0]',           \n","                                                                  'block4a_project_bn[0][0]']     \n","                                                                                                  \n"," block4c_expand_conv (Conv2D)   (None, 14, 14, 480)  38400       ['block4b_add[0][0]']            \n","                                                                                                  \n"," block4c_expand_bn (BatchNormal  (None, 14, 14, 480)  1920       ['block4c_expand_conv[0][0]']    \n"," ization)                                                                                         \n","                                                                                                  \n"," block4c_expand_activation (Act  (None, 14, 14, 480)  0          ['block4c_expand_bn[0][0]']      \n"," ivation)                                                                                         \n","                                                                                                  \n"," block4c_dwconv (DepthwiseConv2  (None, 14, 14, 480)  4320       ['block4c_expand_activation[0][0]\n"," D)                                                              ']                               \n","                                                                                                  \n"," block4c_bn (BatchNormalization  (None, 14, 14, 480)  1920       ['block4c_dwconv[0][0]']         \n"," )                                                                                                \n","                                                                                                  \n"," block4c_activation (Activation  (None, 14, 14, 480)  0          ['block4c_bn[0][0]']             \n"," )                                                                                                \n","                                                                                                  \n"," block4c_se_squeeze (GlobalAver  (None, 480)         0           ['block4c_activation[0][0]']     \n"," agePooling2D)                                                                                    \n","                                                                                                  \n"," block4c_se_reshape (Reshape)   (None, 1, 1, 480)    0           ['block4c_se_squeeze[0][0]']     \n","                                                                                                  \n"," block4c_se_reduce (Conv2D)     (None, 1, 1, 20)     9620        ['block4c_se_reshape[0][0]']     \n","                                                                                                  \n"," block4c_se_expand (Conv2D)     (None, 1, 1, 480)    10080       ['block4c_se_reduce[0][0]']      \n","                                                                                                  \n"," block4c_se_excite (Multiply)   (None, 14, 14, 480)  0           ['block4c_activation[0][0]',     \n","                                                                  'block4c_se_expand[0][0]']      \n","                                                                                                  \n"," block4c_project_conv (Conv2D)  (None, 14, 14, 80)   38400       ['block4c_se_excite[0][0]']      \n","                                                                                                  \n"," block4c_project_bn (BatchNorma  (None, 14, 14, 80)  320         ['block4c_project_conv[0][0]']   \n"," lization)                                                                                        \n","                                                                                                  \n"," block4c_drop (Dropout)         (None, 14, 14, 80)   0           ['block4c_project_bn[0][0]']     \n","                                                                                                  \n"," block4c_add (Add)              (None, 14, 14, 80)   0           ['block4c_drop[0][0]',           \n","                                                                  'block4b_add[0][0]']            \n","                                                                                                  \n"," block5a_expand_conv (Conv2D)   (None, 14, 14, 480)  38400       ['block4c_add[0][0]']            \n","                                                                                                  \n"," block5a_expand_bn (BatchNormal  (None, 14, 14, 480)  1920       ['block5a_expand_conv[0][0]']    \n"," ization)                                                                                         \n","                                                                                                  \n"," block5a_expand_activation (Act  (None, 14, 14, 480)  0          ['block5a_expand_bn[0][0]']      \n"," ivation)                                                                                         \n","                                                                                                  \n"," block5a_dwconv (DepthwiseConv2  (None, 14, 14, 480)  12000      ['block5a_expand_activation[0][0]\n"," D)                                                              ']                               \n","                                                                                                  \n"," block5a_bn (BatchNormalization  (None, 14, 14, 480)  1920       ['block5a_dwconv[0][0]']         \n"," )                                                                                                \n","                                                                                                  \n"," block5a_activation (Activation  (None, 14, 14, 480)  0          ['block5a_bn[0][0]']             \n"," )                                                                                                \n","                                                                                                  \n"," block5a_se_squeeze (GlobalAver  (None, 480)         0           ['block5a_activation[0][0]']     \n"," agePooling2D)                                                                                    \n","                                                                                                  \n"," block5a_se_reshape (Reshape)   (None, 1, 1, 480)    0           ['block5a_se_squeeze[0][0]']     \n","                                                                                                  \n"," block5a_se_reduce (Conv2D)     (None, 1, 1, 20)     9620        ['block5a_se_reshape[0][0]']     \n","                                                                                                  \n"," block5a_se_expand (Conv2D)     (None, 1, 1, 480)    10080       ['block5a_se_reduce[0][0]']      \n","                                                                                                  \n"," block5a_se_excite (Multiply)   (None, 14, 14, 480)  0           ['block5a_activation[0][0]',     \n","                                                                  'block5a_se_expand[0][0]']      \n","                                                                                                  \n"," block5a_project_conv (Conv2D)  (None, 14, 14, 112)  53760       ['block5a_se_excite[0][0]']      \n","                                                                                                  \n"," block5a_project_bn (BatchNorma  (None, 14, 14, 112)  448        ['block5a_project_conv[0][0]']   \n"," lization)                                                                                        \n","                                                                                                  \n"," block5b_expand_conv (Conv2D)   (None, 14, 14, 672)  75264       ['block5a_project_bn[0][0]']     \n","                                                                                                  \n"," block5b_expand_bn (BatchNormal  (None, 14, 14, 672)  2688       ['block5b_expand_conv[0][0]']    \n"," ization)                                                                                         \n","                                                                                                  \n"," block5b_expand_activation (Act  (None, 14, 14, 672)  0          ['block5b_expand_bn[0][0]']      \n"," ivation)                                                                                         \n","                                                                                                  \n"," block5b_dwconv (DepthwiseConv2  (None, 14, 14, 672)  16800      ['block5b_expand_activation[0][0]\n"," D)                                                              ']                               \n","                                                                                                  \n"," block5b_bn (BatchNormalization  (None, 14, 14, 672)  2688       ['block5b_dwconv[0][0]']         \n"," )                                                                                                \n","                                                                                                  \n"," block5b_activation (Activation  (None, 14, 14, 672)  0          ['block5b_bn[0][0]']             \n"," )                                                                                                \n","                                                                                                  \n"," block5b_se_squeeze (GlobalAver  (None, 672)         0           ['block5b_activation[0][0]']     \n"," agePooling2D)                                                                                    \n","                                                                                                  \n"," block5b_se_reshape (Reshape)   (None, 1, 1, 672)    0           ['block5b_se_squeeze[0][0]']     \n","                                                                                                  \n"," block5b_se_reduce (Conv2D)     (None, 1, 1, 28)     18844       ['block5b_se_reshape[0][0]']     \n","                                                                                                  \n"," block5b_se_expand (Conv2D)     (None, 1, 1, 672)    19488       ['block5b_se_reduce[0][0]']      \n","                                                                                                  \n"," block5b_se_excite (Multiply)   (None, 14, 14, 672)  0           ['block5b_activation[0][0]',     \n","                                                                  'block5b_se_expand[0][0]']      \n","                                                                                                  \n"," block5b_project_conv (Conv2D)  (None, 14, 14, 112)  75264       ['block5b_se_excite[0][0]']      \n","                                                                                                  \n"," block5b_project_bn (BatchNorma  (None, 14, 14, 112)  448        ['block5b_project_conv[0][0]']   \n"," lization)                                                                                        \n","                                                                                                  \n"," block5b_drop (Dropout)         (None, 14, 14, 112)  0           ['block5b_project_bn[0][0]']     \n","                                                                                                  \n"," block5b_add (Add)              (None, 14, 14, 112)  0           ['block5b_drop[0][0]',           \n","                                                                  'block5a_project_bn[0][0]']     \n","                                                                                                  \n"," block5c_expand_conv (Conv2D)   (None, 14, 14, 672)  75264       ['block5b_add[0][0]']            \n","                                                                                                  \n"," block5c_expand_bn (BatchNormal  (None, 14, 14, 672)  2688       ['block5c_expand_conv[0][0]']    \n"," ization)                                                                                         \n","                                                                                                  \n"," block5c_expand_activation (Act  (None, 14, 14, 672)  0          ['block5c_expand_bn[0][0]']      \n"," ivation)                                                                                         \n","                                                                                                  \n"," block5c_dwconv (DepthwiseConv2  (None, 14, 14, 672)  16800      ['block5c_expand_activation[0][0]\n"," D)                                                              ']                               \n","                                                                                                  \n"," block5c_bn (BatchNormalization  (None, 14, 14, 672)  2688       ['block5c_dwconv[0][0]']         \n"," )                                                                                                \n","                                                                                                  \n"," block5c_activation (Activation  (None, 14, 14, 672)  0          ['block5c_bn[0][0]']             \n"," )                                                                                                \n","                                                                                                  \n"," block5c_se_squeeze (GlobalAver  (None, 672)         0           ['block5c_activation[0][0]']     \n"," agePooling2D)                                                                                    \n","                                                                                                  \n"," block5c_se_reshape (Reshape)   (None, 1, 1, 672)    0           ['block5c_se_squeeze[0][0]']     \n","                                                                                                  \n"," block5c_se_reduce (Conv2D)     (None, 1, 1, 28)     18844       ['block5c_se_reshape[0][0]']     \n","                                                                                                  \n"," block5c_se_expand (Conv2D)     (None, 1, 1, 672)    19488       ['block5c_se_reduce[0][0]']      \n","                                                                                                  \n"," block5c_se_excite (Multiply)   (None, 14, 14, 672)  0           ['block5c_activation[0][0]',     \n","                                                                  'block5c_se_expand[0][0]']      \n","                                                                                                  \n"," block5c_project_conv (Conv2D)  (None, 14, 14, 112)  75264       ['block5c_se_excite[0][0]']      \n","                                                                                                  \n"," block5c_project_bn (BatchNorma  (None, 14, 14, 112)  448        ['block5c_project_conv[0][0]']   \n"," lization)                                                                                        \n","                                                                                                  \n"," block5c_drop (Dropout)         (None, 14, 14, 112)  0           ['block5c_project_bn[0][0]']     \n","                                                                                                  \n"," block5c_add (Add)              (None, 14, 14, 112)  0           ['block5c_drop[0][0]',           \n","                                                                  'block5b_add[0][0]']            \n","                                                                                                  \n"," block6a_expand_conv (Conv2D)   (None, 14, 14, 672)  75264       ['block5c_add[0][0]']            \n","                                                                                                  \n"," block6a_expand_bn (BatchNormal  (None, 14, 14, 672)  2688       ['block6a_expand_conv[0][0]']    \n"," ization)                                                                                         \n","                                                                                                  \n"," block6a_expand_activation (Act  (None, 14, 14, 672)  0          ['block6a_expand_bn[0][0]']      \n"," ivation)                                                                                         \n","                                                                                                  \n"," block6a_dwconv_pad (ZeroPaddin  (None, 17, 17, 672)  0          ['block6a_expand_activation[0][0]\n"," g2D)                                                            ']                               \n","                                                                                                  \n"," block6a_dwconv (DepthwiseConv2  (None, 7, 7, 672)   16800       ['block6a_dwconv_pad[0][0]']     \n"," D)                                                                                               \n","                                                                                                  \n"," block6a_bn (BatchNormalization  (None, 7, 7, 672)   2688        ['block6a_dwconv[0][0]']         \n"," )                                                                                                \n","                                                                                                  \n"," block6a_activation (Activation  (None, 7, 7, 672)   0           ['block6a_bn[0][0]']             \n"," )                                                                                                \n","                                                                                                  \n"," block6a_se_squeeze (GlobalAver  (None, 672)         0           ['block6a_activation[0][0]']     \n"," agePooling2D)                                                                                    \n","                                                                                                  \n"," block6a_se_reshape (Reshape)   (None, 1, 1, 672)    0           ['block6a_se_squeeze[0][0]']     \n","                                                                                                  \n"," block6a_se_reduce (Conv2D)     (None, 1, 1, 28)     18844       ['block6a_se_reshape[0][0]']     \n","                                                                                                  \n"," block6a_se_expand (Conv2D)     (None, 1, 1, 672)    19488       ['block6a_se_reduce[0][0]']      \n","                                                                                                  \n"," block6a_se_excite (Multiply)   (None, 7, 7, 672)    0           ['block6a_activation[0][0]',     \n","                                                                  'block6a_se_expand[0][0]']      \n","                                                                                                  \n"," block6a_project_conv (Conv2D)  (None, 7, 7, 192)    129024      ['block6a_se_excite[0][0]']      \n","                                                                                                  \n"," block6a_project_bn (BatchNorma  (None, 7, 7, 192)   768         ['block6a_project_conv[0][0]']   \n"," lization)                                                                                        \n","                                                                                                  \n"," block6b_expand_conv (Conv2D)   (None, 7, 7, 1152)   221184      ['block6a_project_bn[0][0]']     \n","                                                                                                  \n"," block6b_expand_bn (BatchNormal  (None, 7, 7, 1152)  4608        ['block6b_expand_conv[0][0]']    \n"," ization)                                                                                         \n","                                                                                                  \n"," block6b_expand_activation (Act  (None, 7, 7, 1152)  0           ['block6b_expand_bn[0][0]']      \n"," ivation)                                                                                         \n","                                                                                                  \n"," block6b_dwconv (DepthwiseConv2  (None, 7, 7, 1152)  28800       ['block6b_expand_activation[0][0]\n"," D)                                                              ']                               \n","                                                                                                  \n"," block6b_bn (BatchNormalization  (None, 7, 7, 1152)  4608        ['block6b_dwconv[0][0]']         \n"," )                                                                                                \n","                                                                                                  \n"," block6b_activation (Activation  (None, 7, 7, 1152)  0           ['block6b_bn[0][0]']             \n"," )                                                                                                \n","                                                                                                  \n"," block6b_se_squeeze (GlobalAver  (None, 1152)        0           ['block6b_activation[0][0]']     \n"," agePooling2D)                                                                                    \n","                                                                                                  \n"," block6b_se_reshape (Reshape)   (None, 1, 1, 1152)   0           ['block6b_se_squeeze[0][0]']     \n","                                                                                                  \n"," block6b_se_reduce (Conv2D)     (None, 1, 1, 48)     55344       ['block6b_se_reshape[0][0]']     \n","                                                                                                  \n"," block6b_se_expand (Conv2D)     (None, 1, 1, 1152)   56448       ['block6b_se_reduce[0][0]']      \n","                                                                                                  \n"," block6b_se_excite (Multiply)   (None, 7, 7, 1152)   0           ['block6b_activation[0][0]',     \n","                                                                  'block6b_se_expand[0][0]']      \n","                                                                                                  \n"," block6b_project_conv (Conv2D)  (None, 7, 7, 192)    221184      ['block6b_se_excite[0][0]']      \n","                                                                                                  \n"," block6b_project_bn (BatchNorma  (None, 7, 7, 192)   768         ['block6b_project_conv[0][0]']   \n"," lization)                                                                                        \n","                                                                                                  \n"," block6b_drop (Dropout)         (None, 7, 7, 192)    0           ['block6b_project_bn[0][0]']     \n","                                                                                                  \n"," block6b_add (Add)              (None, 7, 7, 192)    0           ['block6b_drop[0][0]',           \n","                                                                  'block6a_project_bn[0][0]']     \n","                                                                                                  \n"," block6c_expand_conv (Conv2D)   (None, 7, 7, 1152)   221184      ['block6b_add[0][0]']            \n","                                                                                                  \n"," block6c_expand_bn (BatchNormal  (None, 7, 7, 1152)  4608        ['block6c_expand_conv[0][0]']    \n"," ization)                                                                                         \n","                                                                                                  \n"," block6c_expand_activation (Act  (None, 7, 7, 1152)  0           ['block6c_expand_bn[0][0]']      \n"," ivation)                                                                                         \n","                                                                                                  \n"," block6c_dwconv (DepthwiseConv2  (None, 7, 7, 1152)  28800       ['block6c_expand_activation[0][0]\n"," D)                                                              ']                               \n","                                                                                                  \n"," block6c_bn (BatchNormalization  (None, 7, 7, 1152)  4608        ['block6c_dwconv[0][0]']         \n"," )                                                                                                \n","                                                                                                  \n"," block6c_activation (Activation  (None, 7, 7, 1152)  0           ['block6c_bn[0][0]']             \n"," )                                                                                                \n","                                                                                                  \n"," block6c_se_squeeze (GlobalAver  (None, 1152)        0           ['block6c_activation[0][0]']     \n"," agePooling2D)                                                                                    \n","                                                                                                  \n"," block6c_se_reshape (Reshape)   (None, 1, 1, 1152)   0           ['block6c_se_squeeze[0][0]']     \n","                                                                                                  \n"," block6c_se_reduce (Conv2D)     (None, 1, 1, 48)     55344       ['block6c_se_reshape[0][0]']     \n","                                                                                                  \n"," block6c_se_expand (Conv2D)     (None, 1, 1, 1152)   56448       ['block6c_se_reduce[0][0]']      \n","                                                                                                  \n"," block6c_se_excite (Multiply)   (None, 7, 7, 1152)   0           ['block6c_activation[0][0]',     \n","                                                                  'block6c_se_expand[0][0]']      \n","                                                                                                  \n"," block6c_project_conv (Conv2D)  (None, 7, 7, 192)    221184      ['block6c_se_excite[0][0]']      \n","                                                                                                  \n"," block6c_project_bn (BatchNorma  (None, 7, 7, 192)   768         ['block6c_project_conv[0][0]']   \n"," lization)                                                                                        \n","                                                                                                  \n"," block6c_drop (Dropout)         (None, 7, 7, 192)    0           ['block6c_project_bn[0][0]']     \n","                                                                                                  \n"," block6c_add (Add)              (None, 7, 7, 192)    0           ['block6c_drop[0][0]',           \n","                                                                  'block6b_add[0][0]']            \n","                                                                                                  \n"," block6d_expand_conv (Conv2D)   (None, 7, 7, 1152)   221184      ['block6c_add[0][0]']            \n","                                                                                                  \n"," block6d_expand_bn (BatchNormal  (None, 7, 7, 1152)  4608        ['block6d_expand_conv[0][0]']    \n"," ization)                                                                                         \n","                                                                                                  \n"," block6d_expand_activation (Act  (None, 7, 7, 1152)  0           ['block6d_expand_bn[0][0]']      \n"," ivation)                                                                                         \n","                                                                                                  \n"," block6d_dwconv (DepthwiseConv2  (None, 7, 7, 1152)  28800       ['block6d_expand_activation[0][0]\n"," D)                                                              ']                               \n","                                                                                                  \n"," block6d_bn (BatchNormalization  (None, 7, 7, 1152)  4608        ['block6d_dwconv[0][0]']         \n"," )                                                                                                \n","                                                                                                  \n"," block6d_activation (Activation  (None, 7, 7, 1152)  0           ['block6d_bn[0][0]']             \n"," )                                                                                                \n","                                                                                                  \n"," block6d_se_squeeze (GlobalAver  (None, 1152)        0           ['block6d_activation[0][0]']     \n"," agePooling2D)                                                                                    \n","                                                                                                  \n"," block6d_se_reshape (Reshape)   (None, 1, 1, 1152)   0           ['block6d_se_squeeze[0][0]']     \n","                                                                                                  \n"," block6d_se_reduce (Conv2D)     (None, 1, 1, 48)     55344       ['block6d_se_reshape[0][0]']     \n","                                                                                                  \n"," block6d_se_expand (Conv2D)     (None, 1, 1, 1152)   56448       ['block6d_se_reduce[0][0]']      \n","                                                                                                  \n"," block6d_se_excite (Multiply)   (None, 7, 7, 1152)   0           ['block6d_activation[0][0]',     \n","                                                                  'block6d_se_expand[0][0]']      \n","                                                                                                  \n"," block6d_project_conv (Conv2D)  (None, 7, 7, 192)    221184      ['block6d_se_excite[0][0]']      \n","                                                                                                  \n"," block6d_project_bn (BatchNorma  (None, 7, 7, 192)   768         ['block6d_project_conv[0][0]']   \n"," lization)                                                                                        \n","                                                                                                  \n"," block6d_drop (Dropout)         (None, 7, 7, 192)    0           ['block6d_project_bn[0][0]']     \n","                                                                                                  \n"," block6d_add (Add)              (None, 7, 7, 192)    0           ['block6d_drop[0][0]',           \n","                                                                  'block6c_add[0][0]']            \n","                                                                                                  \n"," block7a_expand_conv (Conv2D)   (None, 7, 7, 1152)   221184      ['block6d_add[0][0]']            \n","                                                                                                  \n"," block7a_expand_bn (BatchNormal  (None, 7, 7, 1152)  4608        ['block7a_expand_conv[0][0]']    \n"," ization)                                                                                         \n","                                                                                                  \n"," block7a_expand_activation (Act  (None, 7, 7, 1152)  0           ['block7a_expand_bn[0][0]']      \n"," ivation)                                                                                         \n","                                                                                                  \n"," block7a_dwconv (DepthwiseConv2  (None, 7, 7, 1152)  10368       ['block7a_expand_activation[0][0]\n"," D)                                                              ']                               \n","                                                                                                  \n"," block7a_bn (BatchNormalization  (None, 7, 7, 1152)  4608        ['block7a_dwconv[0][0]']         \n"," )                                                                                                \n","                                                                                                  \n"," block7a_activation (Activation  (None, 7, 7, 1152)  0           ['block7a_bn[0][0]']             \n"," )                                                                                                \n","                                                                                                  \n"," block7a_se_squeeze (GlobalAver  (None, 1152)        0           ['block7a_activation[0][0]']     \n"," agePooling2D)                                                                                    \n","                                                                                                  \n"," block7a_se_reshape (Reshape)   (None, 1, 1, 1152)   0           ['block7a_se_squeeze[0][0]']     \n","                                                                                                  \n"," block7a_se_reduce (Conv2D)     (None, 1, 1, 48)     55344       ['block7a_se_reshape[0][0]']     \n","                                                                                                  \n"," block7a_se_expand (Conv2D)     (None, 1, 1, 1152)   56448       ['block7a_se_reduce[0][0]']      \n","                                                                                                  \n"," block7a_se_excite (Multiply)   (None, 7, 7, 1152)   0           ['block7a_activation[0][0]',     \n","                                                                  'block7a_se_expand[0][0]']      \n","                                                                                                  \n"," block7a_project_conv (Conv2D)  (None, 7, 7, 320)    368640      ['block7a_se_excite[0][0]']      \n","                                                                                                  \n"," block7a_project_bn (BatchNorma  (None, 7, 7, 320)   1280        ['block7a_project_conv[0][0]']   \n"," lization)                                                                                        \n","                                                                                                  \n"," top_conv (Conv2D)              (None, 7, 7, 1280)   409600      ['block7a_project_bn[0][0]']     \n","                                                                                                  \n"," top_bn (BatchNormalization)    (None, 7, 7, 1280)   5120        ['top_conv[0][0]']               \n","                                                                                                  \n"," top_activation (Activation)    (None, 7, 7, 1280)   0           ['top_bn[0][0]']                 \n","                                                                                                  \n","==================================================================================================\n","Total params: 4,049,571\n","Trainable params: 4,007,548\n","Non-trainable params: 42,023\n","____________________________________________________
…
/localhost:8080/"},"id":"EKvt6ioQ2IoU","executionInfo":{"status":"ok","timestamp":1649919979927,"user_tz":-300,"elapsed":260,"user":{"displayName":"Даниил Маненок","userId":"11391168364756720378"}},"outputId":"faaf1caf-eb92-4469-eb56-6accc43e017d"},"execution_count":null,"outputs":[{"output_type":"stream","name":"stdout","text":["Model: \"sequential_5\"\n","_________________________________________________________________\n"," Layer (type)                Output Shape              Param #   \n","=================================================================\n"," efficientnetb0 (Functional)  (None, 7, 7, 1280)       4049571   \n","                                                                 \n"," flatten_5 (Flatten)         (None, 62720)             0         \n","                                                                 \n"," dense_10 (Dense)            (None, 1024)              64226304  \n","                                                                 \n"," dropout (Dropout)           (None, 1024)              0         \n","                                                                 \n"," dense_11 (Dense)            (None, 15)                15375     \n","                                                                 \n","=================================================================\n","Total params: 68,291,250\n","Trainable params: 64,241,679\n","Non-trainable params: 4,049,571\n","_________________________________________________________________\n"]}]},{"cell_type":"code","source":["conv_base.trainable = False"],"metadata":{"id":"
…
                                                \n","                                                                                                  \n"," block1d_add (Add)              (None, 112, 112, 32  0           ['block1d_project_activation[0][0\n","                                )                                ]',                              \n","                                                                  'block1c_add[0][0]']            \n","                                                                                                  \n"," block2a_expand_conv (Conv2D)   (None, 56, 56, 128)  36864       ['block1d_add[0][0]']            \n","                                                                                                  \n"," block2a_expand_bn (BatchNormal  (None, 56, 56, 128)  512        ['block2a_expand_conv[0][0]']    \n"," ization)                                                                                         \n","                                                                                                  \n"," block2a_expand_activation (Act  (None, 56, 56, 128)  0          ['block2a_expand_bn[0][0]']      \n"," ivation)                                                                                         \n","                                                                                                  \n"," block2a_project_conv (Conv2D)  (None, 56, 56, 64)   8192        ['block2a_expand_activation[0][0]\n","                                                                 ']                               \n","                                                                                                  \n"," block2a_project_bn (BatchNorma  (None, 56, 56, 64)  256         ['block2a_project_conv[0][0]']   \n"," lization)                                                                                        \n","                                                                                                  \n"," block2b_expand_conv (Conv2D)   (None, 56, 56, 256)  147456      ['block2a_project_bn[0][0]']     \n","                                                                                                  \n"," block2b_expand_bn (BatchNormal  (None, 56, 56, 256)  1024       ['block2b_expand_conv[0][0]']    \n"," ization)                                                                                         \n","                                                                                                  \n"," block2b_expand_activation (Act  (None, 56, 56, 256)  0          ['block2b_expand_bn[0][0]']      \n"," ivation)                                                                                         \n","                                                                                                  \n"," block2b_project_conv (Conv2D)  (None, 56, 56, 64)   16384       ['block2b_expand_activation[0][0]\n","                                                                 ']                               \n","                                                                                                  \n"," block2b_project_bn (BatchNorma  (None, 56, 56, 64)  256         ['block2b_project_conv[0][0]']   \n"," lization)                                                                                        \n","                                                                                                  \n"," block2b_add (Add)              (None, 56, 56, 64)   0           ['block2b_project_bn[0][0]',     \n","                                                                  'block2a_project_bn[0][0]']     \n","                                                                                                  \n"," block2c_expand_conv (Conv2D)   (None, 56, 56, 256)  147456      ['block2b_add[0][0]']            \n","                                                                                                  \n"," block2c_expand_bn (BatchNormal  (None, 56, 56, 256)  1024       ['block2c_expand_conv[0][0]']    \n"," ization)                                                                                         \n","                                                                                                  \n"," block2c_expand_activation (Act  (None, 56, 56, 256)  0          ['block2c_expand_bn[0][0]']      \n"," ivation)                                                                                         \n","                                                                                                  \n"," block2c_project_conv (Conv2D)  (None, 56, 56, 64)   16384       ['block2c_expand_activation[0][0]\n","                                                                 ']                               \n","                                                                                                  \n"," block2c_project_bn (BatchNorma  (None, 56, 56, 64)  256         ['block2c_project_conv[0][0]']   \n"," lization)                                                                                        \n","                                                                                                  \n"," block2c_add (Add)              (None, 56, 56, 64)   0           ['block2c_project_bn[0][0]',     \n","                                                                  'block2b_add[0][0]']            \n","                                                                                                  \n"," block2d_expand_conv (Conv2D)   (None, 56, 56, 256)  147456      ['block2c_add[0][0]']            \n","                                                                                                  \n"," block2d_expand_bn (BatchNormal  (None, 56, 56, 256)  1024       ['block2d_expand_conv[0][0]']    \n"," ization)                                                                                         \n","                                                                                                  \n"," block2d_expand_activation (Act  (None, 56, 56, 256)  0          ['block2d_expand_bn[0][0]']      \n"," ivation)                                                                                         \n","                                                                                                  \n"," block2d_project_conv (Conv2D)  (None, 56, 56, 64)   16384       ['block2d_expand_activation[0][0]\n","                                                                 ']                               \n","                                                                                                  \n"," block2d_project_bn (BatchNorma  (None, 56, 56, 64)  256         ['block2d_project_conv[0][0]']   \n"," lization)                                                                                        \n","                                                                                                  \n"," block2d_add (Add)              (None, 56, 56, 64)   0           ['block2d_project_bn[0][0]',     \n","                                                                  'block2c_add[0][0]']            \n","                                                                                                  \n"," block2e_expand_conv (Conv2D)   (None, 56, 56, 256)  147456      ['block2d_add[0][0]']            \n","                                                                                                  \n"," block2e_expand_bn (BatchNormal  (None, 56, 56, 256)  1024       ['block2e_expand_conv[0][0]']    \n"," ization)                                                                                         \n","                                                                                                  \n"," block2e_expand_activation (Act  (None, 56, 56, 256)  0          ['block2e_expand_bn[0][0]']      \n"," ivation)                                                                                         \n","                                                                                                  \n"," block2e_project_conv (Conv2D)  (None, 56, 56, 64)   16384       ['block2e_expand_activation[0][0]\n","                                                                 ']                               \n","                                                                                                  \n"," block2e_project_bn (BatchNorma  (None, 56, 56, 64)  256         ['block2e_project_conv[0][0]']   \n"," lization)                                                                                        \n","                                                                                                  \n"," block2e_add (Add)              (None, 56, 56, 64)   0           ['block2e_project_bn[0][0]',     \n","                                                                  'block2d_add[0][0]']            \n","                                                                                                  \n"," block2f_expand_conv (Conv2D)   (None, 56, 56, 256)  147456      ['block2e_add[0][0]']            \n","                                                                                                  \n"," block2f_expand_bn (BatchNormal  (None, 56, 56, 256)  1024       ['block2f_expand_conv[0][0]']    \n"," ization)                                                                                         \n","                                                                                                  \n"," block2f_expand_activation (Act  (None, 56, 56, 256)  0          ['block2f_expand_bn[0][0]']      \n"," ivation)                                                                                         \n","                                                                                                  \n"," block2f_project_conv (Conv2D)  (None, 56, 56, 64)   16384       ['block2f_expand_activation[0][0]\n","                                                                 ']                               \n","                                                                                                  \n"," block2f_project_bn (BatchNorma  (None, 56, 56, 64)  256         ['block2f_project_conv[0][0]']   \n"," lization)                                                                                        \n","                                                                                                  \n"," block2f_add (Add)              (None, 56, 56, 64)   0           ['block2f_project_bn[0][0]',     \n","                                                                  'block2e_add[0][0]']            \n","                                                                                                  \n"," block2g_expand_conv (Conv2D)   (None, 56, 56, 256)  147456      ['block2f_add[0][0]']            \n","                                                                                                  \n"," block2g_expand_bn (BatchNormal  (None, 56, 56, 256)  1024       ['block2g_expand_conv[0][0]']    \n"," ization)                                                                                         \n","                                                                                                  \n"," block2g_expand_activation (Act  (None, 56, 56, 256)  0          ['block2g_expand_bn[0][0]']      \n"," ivation)                                                                                         \n","                                                                                                  \n"," block2g_project_conv (Conv2D)  (None, 56, 56, 64)   16384       ['block2g_expand_activation[0][0]\n","                                                                 ']                               \n","                                                                                                  \n"," block2g_project_bn (BatchNorma  (None, 56, 56, 64)  256         ['block2g_project_conv[0][0]']   \n"," lization)                                                                                        \n","                                                                                                  \n"," block2g_add (Add)              (None, 56, 56, 64)   0           ['block2g_project_bn[0][0]',     \n","                                                                  'block2f_add[0][0]']            \n","                                                                                                  \n"," block3a_expand_conv (Conv2D)   (None, 28, 28, 256)  147456      ['block2g_add[0][0]']            \n","                                                                                                  \n"," block3a_expand_bn (BatchNormal  (None, 28, 28, 256)  1024       ['block3a_expand_conv[0][0]']    \n"," ization)                                                                                         \n","                                                                                                  \n"," block3a_expand_activation (Act  (None, 28, 28, 256)  0          ['block3a_expand_bn[0][0]']      \n"," ivation)                                                                                         \n","                                                                                                  \n"," block3a_project_conv (Conv2D)  (None, 28, 28, 96)   24576       ['block3a_expand_activation[0][0]\n","                                                                 ']                               \n","                                                                                                  \n"," block3a_project_bn (BatchNorma  (None, 28, 28, 96)  384         ['block3a_project_conv[0][0]']   \n"," lization)                                                                                        \n","                                                                                                  \n"," block3b_expand_conv (Conv2D)   (None, 28, 28, 384)  331776      ['block3a_project_bn[0][0]']     \n","                                                                                                  \n"," block3b_expand_bn (BatchNormal  (None, 28, 28, 384)  1536       ['block3b_expand_conv[0][0]']    \n"," ization)                                                                                         \n","                                                                                                  \n"," block3b_expand_activation (Act  (None, 28, 28, 384)  0          ['block3b_expand_bn[0][0]']      \n"," ivation)                                                                                         \n","                                                                                                  \n"," block3b_project_conv (Conv2D)  (None, 28, 28, 96)   36864       ['block3b_expand_activation[0][0]\n","                                                                 ']                               \n","                                                                                                  \n"," block3b_project_bn (BatchNorma  (None, 28, 28, 96)  384         ['block3b_project_conv[0][0]']   \n"," lization)                                                                                        \n","                                                                                                  \n"," block3b_add (Add)              (None, 28, 28, 96)   0           ['block3b_project_bn[0][0]',     \n","                                                                  'block3a_project_bn[0][0]']     \n","                                                                                                  \n"," block3c_expand_conv (Conv2D)   (None, 28, 28, 384)  331776      ['block3b_add[0][0]']            \n","                                                                                                  \n"," block3c_expand_bn (BatchNormal  (None, 28, 28, 384)  1536       ['block3c_expand_conv[0][0]']    \n"," ization)                                                                                         \n","                                                                                                  \n"," block3c_expand_activation (Act  (None, 28, 28, 384)  0          ['block3c_expand_bn[0][0]']      \n"," ivation)                                                                                         \n","                                                                                                  \n"," block3c_project_conv (Conv2D)  (None, 28, 28, 96)   36864       ['block3c_expand_activation[0][0]\n","                                                                 ']                               \n","                                                                                                  \n"," block3c_project_bn (BatchNorma  (None, 28, 28, 96)  384         ['block3c_project_conv[0][0]']   \n"," lization)                                                                                        \n","                                                                                                  \n"," block3c_add (Add)              (None, 28, 28, 96)   0           ['block3c_project_bn[0][0]',     \n","                                                                  'block3b_add[0][0]']            \n","                                                                                                  \n"," block3d_expand_conv (Conv2D)   (None, 28, 28, 384)  331776      ['block3c_add[0][0]']            \n","                                                                                                  \n"," block3d_expand_bn (BatchNormal  (None, 28, 28, 384)  1536       ['block3d_expand_conv[0][0]']    \n"," ization)                                                                                         \n","                                                                                                  \n"," block3d_expand_activation (Act  (None, 28, 28, 384)  0          ['block3d_expand_bn[0][0]']      \n"," ivation)                                                                                         \n","                                                                                                  \n"," block3d_project_conv (Conv2D)  (None, 28, 28, 96)   36864       ['block3d_expand_activation[0][0]\n","                                                                 ']                               \n","                                                                                                  \n"," block3d_project_bn (BatchNorma  (None, 28, 28, 96)  384         ['block3d_project_conv[0][0]']   \n"," lization)                                                                                        \n","                                                                                                  \n"," block3d_add (Add)              (None, 28, 28, 96)   0           ['block3d_project_bn[0][0]',     \n","                                                                  'block3c_add[0][0]']            \n","                                                                                                  \n"," block3e_expand_conv (Conv2D)   (None, 28, 28, 384)  331776      ['block3d_add[0][0]']            \n","                                                                                                  \n"," block3e_expand_bn (BatchNormal  (None, 28, 28, 384)  1536       ['block3e_expand_conv[0][0]']    \n"," ization)                                                                                         \n","                                                                                                  \n"," block3e_expand_activation (Act  (None, 28, 28, 384)  0          ['block3e_expand_bn[0][0]']      \n"," ivation)                                                                                         \n","                                                                                                  \n"," block3e_project_conv (Conv2D)  (None, 28, 28, 96)   36864       ['block3e_expand_activation[0][0]\n","                                                                 ']                               \n","                                                                                                  \n"," block3e_project_bn (BatchNorma  (None, 28, 28, 96)  384         ['block3e_project_conv[0][0]']   \n"," lization)                                                                                        \n","                                                                                                  \n"," block3e_add (Add)              (None, 28, 28, 96)   0           ['block3e_project_bn[0][0]',     \n","                                                                  'block3d_add[0][0]']            \n","                                                                                                  \n"," block3f_expand_conv (Conv2D)   (None, 28, 28, 384)  331776      ['block3e_add[0][0]']            \n","                                                                                                  \n"," block3f_expand_bn (BatchNormal  (None, 28, 28, 384)  1536       ['block3f_expand_conv[0][0]']    \n"," ization)                                                                                         \n","                                                                                                  \n"," block3f_expand_activation (Act  (None, 28, 28, 384)  0          ['block3f_expand_bn[0][0]']      \n"," ivation)                                                                                         \n","                                                                                                  \n"," block3f_project_conv (Conv2D)  (None, 28, 28, 96)   36864       ['block3f_expand_activation[0][0]\n","                                                                 ']                               \n","                                                                                                  \n"," block3f_project_bn (BatchNorma  (None, 28, 28, 96)  384         ['block3f_project_conv[0][0]']   \n"," lization)                                                                                        \n","                                                                                                  \n"," block3f_add (Add)              (None, 28, 28, 96)   0           ['block3f_project_bn[0][0]',     \n","                                                                  'block3e_add[0][0]']            \n","                                                                                                  \n"," block3g_expand_conv (Conv2D)   (None, 28, 28, 384)  331776      ['block3f_add[0][0]']            \n","                                                                                                  \n"," block3g_expand_bn (BatchNormal  (None, 28, 28, 384)  1536       ['block3g_expand_conv[0][0]']    \n"," ization)                                                                                         \n","                                                                                                  \n"," block3g_expand_activation (Act  (None, 28, 28, 384)  0          ['block3g_expand_bn[0][0]']      \n"," ivation)                                                                                         \n","                                                                                                  \n"," block3g_project_conv (Conv2D)  (None, 28, 28, 96)   36864       ['block3g_expand_activation[0][0]\n","                                                                 ']                               \n","                                                                                                  \n"," block3g_project_bn (BatchNorma  (None, 28, 28, 96)  384         ['block3g_project_conv[0][0]']   \n"," lization)                                                                                        \n","                                                                                                  \n"," block3g_add (Add)              (None, 28, 28, 96)   0           ['block3g_project_bn[0][0]',     \n","                                                                  'block3f_add[0][0]']            \n","                                                                                                  \n"," block4a_expand_conv (Conv2D)   (None, 28, 28, 384)  36864       ['block3g_add[0][0]']            \n","                                                                                                  \n"," block4a_expand_bn (BatchNormal  (None, 28, 28, 384)  1536       ['block4a_expand_conv[0][0]']    \n"," ization)                                                                                         \n","                                                                                                  \n"," block4a_expand_activation (Act  (None, 28, 28, 384)  0          ['block4a_expand_bn[0][0]']      \n"," ivation)                                                                                         \n","                                                                                                  \n"," block4a_dwconv2 (DepthwiseConv  (None, 14, 14, 384)  3456       ['block4a_expand_activation[0][0]\n"," 2D)                                                             ']                               \n","                                                                                                  \n"," block4a_bn (BatchNormalization  (None, 14, 14, 384)  1536       ['block4a_dwconv2[0][0]']        \n"," )                                                                                                \n","                                                                                                  \n"," block4a_activation (Activation  (None, 14, 14, 384)  0          ['block4a_bn[0][0]']             \n"," )                                                                                                \n","                                                                                                  \n"," block4a_se_squeeze (GlobalAver  (None, 384)         0           ['block4a_activation[0][0]']     \n"," agePooling2D)                                                                                    \n","                                                                                                  \n"," block4a_se_reshape (Reshape)   (None, 1, 1, 384)    0           ['block4a_se_squeeze[0][0]']     \n","                                                                                                  \n"," block4a_se_reduce (Conv2D)     (None, 1, 1, 24)     9240        ['block4a_se_reshape[0][0]']     \n","                                                                                                  \n"," block4a_se_expand (Conv2D)     (None, 1, 1, 384)    9600        ['block4a_se_reduce[0][0]']      \n","                                                                                                  \n"," block4a_se_excite (Multiply)   (None, 14, 14, 384)  0           ['block4a_activation[0][0]',     \n","                                                                  'block4a_se_expand[0][0]']      \n","                                                                                                  \n"," block4a_project_conv (Conv2D)  (None, 14, 14, 192)  73728       ['block4a_se_excite[0][0]']      \n","                                                                                                  \n"," block4a_project_bn (BatchNorma  (None, 14, 14, 192)  768        ['block4a_project_conv[0][0]']   \n"," lization)                                                                                        \n","                                                                                                  \n"," block4b_expand_conv (Conv2D)   (None, 14, 14, 768)  147456      ['block4a_project_bn[0][0]']     \n","                                                                                                  \n"," block4b_expand_bn (BatchNormal  (None, 14, 14, 768)  3072       ['block4b_expand_conv[0][0]']    \n"," ization)                                                                                         \n","                                                                                                  \n"," block4b_expand_activation (Act  (None, 14, 14, 768)  0          ['block4b_expand_bn[0][0]']      \n"," ivation)                                                                                         \n","                                                                                                  \n"," block4b_dwconv2 (DepthwiseConv  (None, 14, 14, 768)  6912       ['block4b_expand_activation[0][0]\n"," 2D)                                                             ']                               \n","                                                                                                  \n"," block4b_bn (BatchNormalization  (None, 14, 14, 768)  3072       ['block4b_dwconv2[0][0]']        \n"," )                                                                                                \n","                                                                                                  \n"," block4b_activation (Activation  (None, 14, 14, 768)  0          ['block4b_bn[0][0]']             \n"," )                                                                                                \n","                                                                                                  \n"," block4b_se_squeeze (GlobalAver  (None, 768)         0           ['block4b_activation[0][0]']     \n"," agePooling2D)                                                                                    \n","                                                                                                  \n"," block4b_se_reshape (Reshape)   (None, 1, 1, 768)    0           ['block4b_se_squeeze[0][0]']     \n","                                                                                                  \n"," block4b_se_reduce (Conv2D)     (None, 1, 1, 48)     36912       ['block4b_se_reshape[0][0]']     \n","                                                                                                  \n"," block4b_se_expand (Conv2D)     (None, 1, 1, 768)    37632       ['block4b_se_reduce[0][0]']      \n","                                                                                                  \n"," block4b_se_excite (Multiply)   (None, 14, 14, 768)  0           ['block4b_activation[0][0]',     \n","                                                                  'block4b_se_expand[0][0]']      \n","                                                                                                  \n"," block4b_project_conv (Conv2D)  (None, 14, 14, 192)  147456      ['block4b_se_excite[0][0]']      \n","                                                                                                  \n"," block4b_project_bn (BatchNorma  (None, 14, 14, 192)  768        ['block4b_project_conv[0][0]']   \n"," lization)                                                                                        \n","                                                                                                  \n"," block4b_add (Add)              (None, 14, 14, 192)  0           ['block4b_project_bn[0][0]',     \n","                                                                  'block4a_project_bn[0][0]']     \n","                                                                                                  \n"," block4c_expand_conv (Conv2D)   (None, 14, 14, 768)  147456      ['block4b_add[0][0]']            \n","                                                                                                  \n"," block4c_expand_bn (BatchNormal  (None, 14, 14, 768)  3072       ['block4c_expand_conv[0][0]']    \n"," ization)                                                                                         \n","                                                                                                  \n"," block4c_expand_activation (Act  (None, 14, 14, 768)  0          ['block4c_expand_bn[0][0]']      \n"," ivation)                                                                                         \n","                                                                                                  \n"," block4c_dwconv2 (DepthwiseConv  (None, 14, 14, 768)  6912       ['block4c_expand_activation[0][0]\n"," 2D)                                                             ']                               \n","                                                                                                  \n"," block4c_bn (BatchNormalization  (None, 14, 14, 768)  3072       ['block4c_dwconv2[0][0]']        \n"," )                                                                                                \n","                                                                                                  \n"," block4c_activation (Activation  (None, 14, 14, 768)  0          ['block4c_bn[0][0]']             \n"," )                                                                                                \n","                                                                                                  \n"," block4c_se_squeeze (GlobalAver  (None, 768)         0           ['block4c_activation[0][0]']     \n"," agePooling2D)                                                                                    \n","                                                                                                  \n"," block4c_se_reshape (Reshape)   (None, 1, 1, 768)    0           ['block4c_se_squeeze[0][0]']     \n","                                                                                                  \n"," block4c_se_reduce (Conv2D)     (None, 1, 1, 48)     36912       ['block4c_se_reshape[0][0]']     \n","                                                                                                  \n"," block4c_se_expand (Conv2D)     (None, 1, 1, 768)    37632       ['block4c_se_reduce[0][0]']      \n","                                                                                                  \n"," block4c_se_excite (Multiply)   (None, 14, 14, 768)  0           ['block4c_activation[0][0]',     \n","                                                                  'block4c_se_expand[0][0]']      \n","                                                                                                  \n"," block4c_project_conv (Conv2D)  (None, 14, 14, 192)  147456      ['block4c_se_excite[0][0]']      \n","                                                                                                  \n"," block4c_project_bn (BatchNorma  (None, 14, 14, 192)  768        ['block4c_project_conv[0][0]']   \n"," lization)                                                                                        \n","                                                                                                  \n"," block4c_add (Add)              (None, 14, 14, 192)  0           ['block4c_project_bn[0][0]',     \n","                                                                  'block4b_add[0][0]']            \n","                                                                                                  \n"," block4d_expand_conv (Conv2D)   (None, 14, 14, 768)  147456      ['block4c_add[0][0]']            \n","                                                                                                  \n"," block4d_expand_bn (BatchNormal  (None, 14, 14, 768)  3072       ['block4d_expand_conv[0][0]']    \n"," ization)                                                                                         \n","                                                                                                  \n"," block4d_expand_activation (Act  (None, 14, 14, 768)  0          ['block4d_expand_bn[0][0]']      \n"," ivation)                                                                                         \n","                                                                                                  \n"," block4d_dwconv2 (DepthwiseConv  (None, 14, 14, 768)  6912       ['block4d_expand_activation[0][0]\n"," 2D)                                                             ']                               \n","                                                                                                  \n"," block4d_bn (BatchNormalization  (None, 14, 14, 768)  3072       ['block4d_dwconv2[0][0]']        \n"," )                                                                                                \n","                                                                                                  \n"," block4d_activation (Activation  (None, 14, 14, 768)  0          ['block4d_bn[0][0]']             \n"," )                                                                                                \n","                                                                                                  \n"," block4d_se_squeeze (GlobalAver  (None, 768)         0           ['block4d_activation[0][0]']     \n"," agePooling2D)                                                                                    \n","                                                                                                  \n"," block4d_se_reshape (Reshape)   (None, 1, 1, 768)    0           ['block4d_se_squeeze[0][0]']     \n","                                                                                                  \n"," block4d_se_reduce (Conv2D)     (None, 1, 1, 48)     36912       ['block4d_se_reshape[0][0]']     \n","                                                                                                  \n"," block4d_se_expand (Conv2D)     (None, 1, 1, 768)    37632       ['block4d_se_reduce[0][0]']      \n","                                                                                                  \n"," block4d_se_excite (Multiply)   (None, 14, 14, 768)  0           ['block4d_activation[0][0]',     \n","                                                                  'block4d_se_expand[0][0]']      \n","                                                                                                  \n"," block4d_project_conv (Conv2D)  (None, 14, 14, 192)  147456      ['block4d_se_excite[0][0]']      \n","                                                                                                  \n"," block4d_project_bn (BatchNorma  (None, 14, 14, 192)  768        ['block4d_project_conv[0][0]']   \n"," lization)                                                                                        \n","                                                                                                  \n"," block4d_add (Add)              (None, 14, 14, 192)  0           ['block4d_project_bn[0][0]',     \n","                                                                  'block4c_add[0][0]']            \n","                                                                                                  \n"," block4e_expand_conv (Conv2D)   (None, 14, 14, 768)  147456      ['block4d_add[0][0]']            \n","                                                                                                  \n"," block4e_expand_bn (BatchNormal  (None, 14, 14, 768)  3072       ['block4e_expand_conv[0][0]']    \n"," ization)                                                                                         \n","                                                                                                  \n"," block4e_expand_activation (Act  (None, 14, 14, 768)  0          ['block4e_expand_bn[0][0]']      \n"," ivation)                                                                                         \n","                                                                                                  \n"," block4e_dwconv2 (DepthwiseConv  (None, 14, 14, 768)  6912       ['block4e_expand_activation[0][0]\n"," 2D)                                                             ']                               \n","                                                                                                  \n"," block4e_bn (BatchNormalization  (None, 14, 14, 768)  3072       ['block4e_dwconv2[0][0]']        \n"," )                                                                                                \n","                                                                                                  \n"," block4e_activation (Activation  (None, 14, 14, 768)  0          ['block4e_bn[0][0]']             \n"," )                                                                                                \n","                                                                                                  \n"," block4e_se_squeeze (GlobalAver  (None, 768)         0           ['block4e_activation[0][0]']     \n"," agePooling2D)                                                                                    \n","                                                                                                  \n"," block4e_se_reshape (Reshape)   (None, 1, 1, 768)    0           ['block4e_se_squeeze[0][0]']     \n","                                                                                                  \n"," block4e_se_reduce (Conv2D)     (None, 1, 1, 48)     36912       ['block4e_se_reshape[0][0]']     \n","                                                                                                  \n"," block4e_se_expand (Conv2D)     (None, 1, 1, 768)    37632       ['block4e_se_reduce[0][0]']      \n","                                                                                                  \n"," block4e_se_excite (Multiply)   (None, 14, 14, 768)  0           ['block4e_activation[0][0]',     \n","                                                                  'block4e_se_expand[0][0]']      \n","                                                                                                  \n"," block4e_project_conv (Conv2D)  (None, 14, 14, 192)  147456      ['block4e_se_excite[0][0]']      \n","                                                                                                  \n"," block4e_project_bn (BatchNorma  (None, 14, 14, 192)  768        ['block4e_project_conv[0][0]']   \n"," lization)                                                                                        \n","                                                                                                  \n"," block4e_add (Add)              (None, 14, 14, 192)  0           ['block4e_project_bn[0][0]',     \n","                                                                  'block4d_add[0][0]']            \n","                                                                                                  \n"," block4f_expand_conv (Conv2D)   (None, 14, 14, 768)  147456      ['block4e_add[0][0]']            \n","                                                                                                  \n"," block4f_expand_bn (BatchNormal  (None, 14, 14, 768)  3072       ['block4f_expand_conv[0][0]']    \n"," ization)                                                                                         \n","                                                                                                  \n"," block4f_expand_activation (Act  (None, 14, 14, 768)  0          ['block4f_expand_bn[0][0]']      \n"," ivation)                                                                                         \n","                                                                                                  \n"," block4f_dwconv2 (DepthwiseConv  (None, 14, 14, 768)  6912       ['block4f_expand_activation[0][0]\n"," 2D)                                                             ']                               \n","                                                                                                  \n"," block4f_bn (BatchNormalization  (None, 14, 14, 768)  3072       ['block4f_dwconv2[0][0]']        \n"," )                                                                                                \n","                                                                                                  \n"," block4f_activation (Activation  (None, 14, 14, 768)  0          ['block4f_bn[0][0]']             \n"," )                                                                                                \n","                                                                                                  \n"," block4f_se_squeeze (GlobalAver  (None, 768)         0           ['block4f_activation[0][0]']     \n"," agePooling2D)                                                                                    \n","                                                                                                  \n"," block4f_se_reshape (Reshape)   (None, 1, 1, 768)    0           ['block4f_se_squeeze[0][0]']     \n","                                                                                                  \n"," block4f_se_reduce (Conv2D)     (None, 1, 1, 48)     36912       ['block4f_se_reshape[0][0]']     \n","                                                                                                  \n"," block4f_se_expand (Conv2D)     (None, 1, 1, 768)    37632       ['block4f_se_reduce[0][0]']      \n","                                                                                                  \n"," block4f_se_excite (Multiply)   (None, 14, 14, 768)  0           ['block4f_activation[0][0]',     \n","                                                                  'block4f_se_expand[0][0]']      \n","                                                                                                  \n"," block4f_project_conv (Conv2D)  (None, 14, 14, 192)  147456      ['block4f_se_excite[0][0]']      \n","                                                                                                  \n"," block4f_project_bn (BatchNorma  (None, 14, 14, 192)  768        ['block4f_project_conv[0][0]']   \n"," lization)                                                                                        \n","                                                                                                  \n"," block4f_add (Add)              (None, 14, 14, 192)  0           ['block4f_project_bn[0][0]',     \n","                                                                  'block4e_add[0][0]']            \n","                                                                                                  \n"," block4g_expand_conv (Conv2D)   (None, 14, 14, 768)  147456      ['block4f_add[0][0]']            \n","                                                                                                  \n"," block4g_expand_bn (BatchNormal  (None, 14, 14, 768)  3072       ['block4g_expand_conv[0][0]']    \n"," ization)                                                                                         \n","                                                                                                  \n"," block4g_expand_activation (Act  (None, 14, 14, 768)  0          ['block4g_expand_bn[0][0]']      \n"," ivation)                                                                                         \n","                                                                                                  \n"," block4g_dwconv2 (DepthwiseConv  (None, 14, 14, 768)  6912       ['block4g_expand_activation[0][0]\n"," 2D)                                                             ']                               \n","                                                                                                  \n"," block4g_bn (BatchNormalization  (None, 14, 14, 768)  3072       ['block4g_dwconv2[0][0]']        \n"," )                                                                                                \n","                                                                                                  \n"," block4g_activation (Activation  (None, 14, 14, 768)  0          ['block4g_bn[0][0]']             \n"," )                                                                                                \n","                                                                                                  \n"," block4g_se_squeeze (GlobalAver  (None, 768)         0           ['block4g_activation[0][0]']     \n"," agePooling2D)                                                                                    \n","                                                                                                  \n"," block4g_se_reshape (Reshape)   (None, 1, 1, 768)    0           ['block4g_se_squeeze[0][0]']     \n","                                                                                                  \n"," block4g_se_reduce (Conv2D)     (None, 1, 1, 48)     36912       ['block4g_se_reshape[0][0]']     \n","                                                                                                  \n"," block4g_se_expand (Conv2D)     (None, 1, 1, 768)    37632       ['block4g_se_reduce[0][0]']      \n","                                                                                                  \n"," block4g_se_excite (Multiply)   (None, 14, 14, 768)  0           ['block4g_activation[0][0]',     \n","                                                                  'block4g_se_expand[0][0]']      \n","                                                                                                  \n"," block4g_project_conv (Conv2D)  (None, 14, 14, 192)  147456      ['block4g_se_excite[0][0]']      \n","                                                                                                  \n"," block4g_project_bn (BatchNorma  (None, 14, 14, 192)  768        ['block4g_project_conv[0][0]']   \n"," lization)                                                                                        \n","                                                                                                  \n"," block4g_add (Add)              (None, 14, 14, 192)  0           ['block4g_project_bn[0][0]',     \n","                                                                  'block4f_add[0][0]']            \n","                                                                                                  \n"," block4h_expand_conv (Conv2D)   (None, 14, 14, 768)  147456      ['block4g_add[0][0]']            \n","                                                                                                  \n"," block4h_expand_bn (BatchNormal  (None, 14, 14, 768)  3072       ['block4h_expand_conv[0][0]']    \n"," ization)                                                                                         \n","                                                                                                  \n"," block4h_expand_activation (Act  (None, 14, 14, 768)  0          ['block4h_expand_bn[0][0]']      \n"," ivation)                                                                                         \n","                                                                                                  \n"," block4h_dwconv2 (DepthwiseConv  (None, 14, 14, 768)  6912       ['block4h_expand_activation[0][0]\n"," 2D)                                                             ']                               \n","                                                                                                  \n"," block4h_bn (BatchNormalization  (None, 14, 14, 768)  3072       ['block4h_dwconv2[0][0]']        \n"," )                                                                                                \n","                                                                                                  \n"," block4h_activation (Activation  (None, 14, 14, 768)  0          ['block4h_bn[0][0]']             \n"," )                                                                                                \n","                                                                                                  \n"," block4h_se_squeeze (GlobalAver  (None, 768)         0           ['block4h_activation[0][0]']     \n"," agePooling2D)                                                                                    \n","                                                                                                  \n"," block4h_se_reshape (Reshape)   (None, 1, 1, 768)    0           ['block4h_se_squeeze[0][0]']     \n","                                                                                                  \n"," block4h_se_reduce (Conv2D)     (None, 1, 1, 48)     36912       ['block4h_se_reshape[0][0]']     \n","                                                                                                  \n"," block4h_se_expand (Conv2D)     (None, 1, 1, 768)    37632       ['block4h_se_reduce[0][0]']      \n","                                                                                                  \n"," block4h_se_excite (Multiply)   (None, 14, 14, 768)  0           ['block4h_activation[0][0]',     \n","                                                                  'block4h_se_expand[0][0]']      \n","                                                                                                  \n"," block4h_project_conv (Conv2D)  (None, 14, 14, 192)  147456      ['block4h_se_excite[0][0]']      \n","                                                                                                  \n"," block4h_project_bn (BatchNorma  (None, 14, 14, 192)  768        ['block4h_project_conv[0][0]']   \n"," lization)                                                                                        \n","                                                                                                  \n"," block4h_add (Add)              (None, 14, 14, 192)  0           ['block4h_project_bn[0][0]',     \n","                                                                  'block4g_add[0][0]']            \n","                                                                                                  \n"," block4i_expand_conv (Conv2D)   (None, 14, 14, 768)  147456      ['block4h_add[0][0]']            \n","                                                                                                  \n"," block4i_expand_bn (BatchNormal  (None, 14, 14, 768)  3072       ['block4i_expand_conv[0][0]']    \n"," ization)                                                                                         \n","                                                                                                  \n"," block4i_expand_activation (Act  (None, 14, 14, 768)  0          ['block4i_expand_bn[0][0]']      \n"," ivation)                                                                                         \n","                                                                                                  \n"," block4i_dwconv2 (DepthwiseConv  (None, 14, 14, 768)  6912       ['block4i_expand_activation[0][0]\n"," 2D)                                                             ']                               \n","                                                                                                  \n"," block4i_bn (BatchNormalization  (None, 14, 14, 768)  3072       ['block4i_dwconv2[0][0]']        \n"," )                                                                                                \n","                                                                                                  \n"," block4i_activation (Activation  (None, 14, 14, 768)  0          ['block4i_bn[0][0]']             \n"," )                                                                                                \n","                                                                                                  \n"," block4i_se_squeeze (GlobalAver  (None, 768)         0           ['block4i_activation[0][0]']     \n"," agePooling2D)                                                                                    \n","                                                                                                  \n"," block4i_se_reshape (Reshape)   (None, 1, 1, 768)    0           ['block4i_se_squeeze[0][0]']     \n","                                                                                                  \n"," block4i_se_reduce (Conv2D)     (None, 1, 1, 48)     36912       ['block4i_se_reshape[0][0]']     \n","                                                                                                  \n"," block4i_se_expand (Conv2D)     (None, 1, 1, 768)    37632       ['block4i_se_reduce[0][0]']      \n","                                                                                                  \n"," block4i_se_excite (Multiply)   (None, 14, 14, 768)  0           ['block4i_activation[0][0]',     \n","                                                                  'block4i_se_expand[0][0]']      \n","                                                                                                  \n"," block4i_project_conv (Conv2D)  (None, 14, 14, 192)  147456      ['block4i_se_excite[0][0]']      \n","                                                                                                  \n"," block4i_project_bn (BatchNorma  (None, 14, 14, 192)  768        ['block4i_project_conv[0][0]']   \n"," lization)                                                                                        \n","                                                                                                  \n"," block4i_add (Add)              (None, 14, 14, 192)  0           ['block4i_project_bn[0][0]',     \n","                                                                  'block4h_add[0][0]']            \n","                                                                                                  \n"," block4j_expand_conv (Conv2D)   (None, 14, 14, 768)  147456      ['block4i_add[0][0]']            \n","                                                                                                  \n"," block4j_expand_bn (BatchNormal  (None, 14, 14, 768)  3072       ['block4j_expand_conv[0][0]']    \n"," ization)                                                                                         \n","                                                                                                  \n"," block4j_expand_activation (Act  (None, 14, 14, 768)  0          ['block4j_expand_bn[0][0]']      \n"," ivation)                                                                                         \n","                                                                                                  \n"," block4j_dwconv2 (DepthwiseConv  (None, 14, 14, 768)  6912       ['block4j_expand_activation[0][0]\n"," 2D)                                                             ']                               \n","                                                                                                  \n"," block4j_bn (BatchNormalization  (None, 14, 14, 768)  3072       ['block4j_dwconv2[0][0]']        \n"," )                                                                                                \n","                                                                                                  \n"," block4j_activation (Activation  (None, 14, 14, 768)  0          ['block4j_bn[0][0]']             \n"," )                                                                                                \n","                                                                                                  \n"," block4j_se_squeeze (GlobalAver  (None, 768)         0           ['block4j_activation[0][0]']     \n"," agePooling2D)                                                                                    \n","                                                                                                  \n"," block4j_se_reshape (Reshape)   (None, 1, 1, 768)    0           ['block4j_se_squeeze[0][0]']     \n","                                                                                                  \n"," block4j_se_reduce (Conv2D)     (None, 1, 1, 48)     36912       ['block4j_se_reshape[0][0]']     \n","                                                                                                  \n"," block4j_se_expand (Conv2D)     (None, 1, 1, 768)    37632       ['block4j_se_reduce[0][0]']      \n","                                                                                                  \n"," block4j_se_excite (Multiply)   (None, 14, 14, 768)  0           ['block4j_activation[0][0]',     \n","                                                                  'block4j_se_expand[0][0]']      \n","                                                                                                  \n"," block4j_project_conv (Conv2D)  (None, 14, 14, 192)  147456      ['block4j_se_excite[0][0]']      \n","                                                                                                  \n"," block4j_project_bn (BatchNorma  (None, 14, 14, 192)  768        ['block4j_project_conv[0][0]']   \n"," lization)                                                                                        \n","                                                                                                  \n"," block4j_add (Add)              (None, 14, 14, 192)  0           ['block4j_project_bn[0][0]',     \n","                                                                  'block4i_add[0][0]']            \n","                                                                                                  \n"," block5a_expand_conv (Conv2D)   (None, 14, 14, 1152  221184      ['block4j_add[0][0]']            \n","                                )         
…
2  4608       ['block5a_dwconv2[0][0]']        \n"," )                              )                                                                 \n","                                                                                                  \n"," block5a_activation (Activation  (None, 14, 14, 1152  0          ['block5a_bn[0][0]']             \n"," )                              )                                                                 \n","                                                                                                  \n"," block5a_se_squeeze (GlobalAver  (None, 1152)        0           ['block5a_activation[0][0]']     \n"," agePooling2D)                                                                                    \n","                                                                                                  \n"," block5a_se_reshape (Reshape)   (None, 1, 1, 1152)   0           ['block5a_se_squeeze[0][0]']     \n","                                                                                                  \n"," block5a_se_reduce (Conv2D)     (None, 1, 1, 48)     55344       ['block5a_se_reshape[0][0]']     \n","                                                                                                  \n"," block5a_se_expand (Conv2D)     (None, 1, 1, 1152)   56448       ['block5a_se_reduce[0][0]']      \n","                                                                                                  \n"," block5a_se_excite (Multiply)   (None, 14, 14, 1152  0           ['block5a_activation[0][0]',     \n","                                )                                 'block5a_se_expand[0][0]']      \n","                                                                                                  \n"," block5a_project_conv (Conv2D)  (None, 14, 14, 224)  258048      ['block5a_se_excite[0][0]']      \n","                                                                                                  \n"," block5a_project_bn (BatchNorma  (None, 14, 14, 224)  896        ['block5a_project_conv[0][0]']   \n"," lization)                                                                                        \n","                                                                                                  \n"," block5b_expand_conv (Conv2D)   (None, 14, 14, 1344  301056      ['block5a_project_bn[0][0]']     \n","                                )            
…
4  5376       ['block5b_dwconv2[0][0]']        \n"," )                              )                                                                 \n","                                                                                                  \n"," block5b_activation (Activation  (None, 14, 14, 1344  0          ['block5b_bn[0][0]']             \n"," )                              )                                                                 \n","                                                                                                  \n"," block5b_se_squeeze (GlobalAver  (None, 1344)        0           ['block5b_activation[0][0]']     \n"," agePooling2D)                                                                                    \n","                                                                                                  \n"," block5b_se_reshape (Reshape)   (None, 1, 1, 1344)   0           ['block5b_se_squeeze[0][0]']     \n","                                                                                                  \n"," block5b_se_reduce (Conv2D)     (None, 1, 1, 56)     75320       ['block5b_se_reshape[0][0]']     \n","                                                                                                  \n"," block5b_se_expand (Conv2D)     (None, 1, 1, 1344)   76608       ['block5b_se_reduce[0][0]']      \n","                                                                                                  \n"," block5b_se_excite (Multiply)   (None, 14, 14, 1344  0           ['block5b_activation[0][0]',     \n","                                )                                 'block5b_se_expand[0][0]']      \n","                                                                                                  \n"," block5b_project_conv (Conv2D)  (None, 14, 14, 224)  301056      ['block5b_se_excite[0][0]']      \n","                                                                                                  \n"," block5b_project_bn (BatchNorma  (None, 14, 14, 224)  896        ['block5b_project_conv[0][0]']   \n"," lization)                                                                                        \n","                                                                                                  \n"," block5b_add (Add)              (None, 14, 14, 224)  0           ['block5b_project_bn[0][0]',     \n","                                                                  'block5a_project_bn[0][0]']     \n","                                                                                                  \n"," block5c_expand_conv (Conv2D)   (None, 14, 14, 1344  301056      ['block5b_add[0][0]']            \n","                                )         
…
4  5376       ['block6a_expand_conv[0][0]']    \n"," ization)                       )                                                                 \n","                                                                                                  \n"," block6a_expand_activation (Act  (None, 14, 14, 1344  0          ['block6a_expand_bn[0][0]']      \n"," ivation)                       )                                                                 \n","                                                                                                  \n"," block6a_dwconv2 (DepthwiseConv  (None, 7, 7, 1344)  12096       ['block6a_expand_activation[0][0]\n"," 2D)                                                             ']                               \n","                                                                                                  \n"," block6a_bn (BatchNormalization  (None, 7, 7, 1344)  5376        ['block6a_dwconv2[0][0]']        \n"," )                                                                                                \n","                                                                                                  \n"," block6a_activation (Activation  (None, 7, 7, 1344)  0           ['block6a_bn[0][0]']             \n"," )                                                                                                \n","                                                                                                  \n"," block6a_se_squeeze (GlobalAver  (None, 1344)        0           ['block6a_activation[0][0]']     \n"," agePooling2D)                                                                                    \n","                                                                                                  \n"," block6a_se_reshape (Reshape)   (None, 1, 1, 1344)   0           ['block6a_se_squeeze[0][0]']     \n","                                                                                                  \n"," block6a_se_reduce (Conv2D)     (None, 1, 1, 56)     75320       ['block6a_se_reshape[0][0]']     \n","                                                                                                  \n"," block6a_se_expand (Conv2D)     (None, 1, 1, 1344)   76608       ['block6a_se_reduce[0][0]']      \n","                                                                                                  \n"," block6a_se_excite (Multiply)   (None, 7, 7, 1344)   0           ['block6a_activation[0][0]',     \n","                                                                  'block6a_se_expand[0][0]']      \n","                                                                                                  \n"," block6a_project_conv (Conv2D)  (None, 7, 7, 384)    516096      ['block6a_se_excite[0][0]']      \n","                                                                                                  \n"," block6a_project_bn (BatchNorma  (None, 7, 7, 384)   1536        ['block6a_project_conv[0][0]']   \n"," lization)                                                                                        \n","                                                                                                  \n"," block6b_expand_conv (Conv2D)   (None, 7, 7, 2304)   884736      ['block6a_project_bn[0][0]']     \n","                                                                                                  \n"," block6b_expand_bn (BatchNormal  (None, 7, 7, 2304)  9216        ['block6b_expand_conv[0][0]']    \n"," ization)                                                                                         \n","                                                                                                  \n"," block6b_expand_activation (Act  (None, 7, 7, 2304)  0           ['block6b_expand_bn[0][0]']      \n"," ivation)                                                                                         \n","                                                                                                  \n"," block6b_dwconv2 (DepthwiseConv  (None, 7, 7, 2304)  20736       ['block6b_expand_activation[0][0]\n"," 2D)                                                             ']                               \n","                                                                                                  \n"," block6b_bn (BatchNormalization  (None, 7, 7, 2304)  9216        ['block6b_dwconv2[0][0]']        \n"," )                                                                                                \n","                                                                                                  \n"," block6b_activation (Activation  (None, 7, 7, 2304)  0           ['block6b_bn[0][0]']             \n"," )                                                                                                \n","                                                                                                  \n"," block6b_se_squeeze (GlobalAver  (None, 2304)        0           ['block6b_activation[0][0]']     \n"," agePooling2D)                                                                                    \n","                                                                                                  \n"," block6b_se_reshape (Reshape)   (None, 1, 1, 2304)   0           ['block6b_se_squeeze[0][0]']     \n","                                                                                                  \n"," block6b_se_reduce (Conv2D)     (None, 1, 1, 96)     221280      ['block6b_se_reshape[0][0]']     \n","                                                                                                  \n"," block6b_se_expand (Conv2D)     (None, 1, 1, 2304)   223488      ['block6b_se_reduce[0][0]']      \n","                                                                                                  \n"," block6b_se_excite (Multiply)   (None, 7, 7, 2304)   0           ['block6b_activation[0][0]',     \n","                                                                  'block6b_se_expand[0][0]']      \n","                                                                                                  \n"," block6b_project_conv (Conv2D)  (None, 7, 7, 384)    884736      ['block6b_se_excite[0][0]']      \n","                                                                                                  \n"," block6b_project_bn (BatchNorma  (None, 7, 7, 384)   1536        ['block6b_project_conv[0][0]']   \n"," lization)                                                                                        \n","                                                                                                  \n"," block6b_add (Add)              (None, 7, 7, 384)    0           ['block6b_project_bn[0][0]',     \n","                                                                  'block6a_project_bn[0][0]']     \n","                                                                                                  \n"," block6c_expand_conv (Conv2D)   (None, 7, 7, 2304)   884736      ['block6b_add[0][0]']            \n","                                                                                                  \n"," block6c_expand_bn (BatchNormal  (None, 7, 7, 2304)  9216        ['block6c_expand_conv[0][0]']    \n"," ization)                                                                                         \n","                                                                                                  \n"," block6c_expand_activation (Act  (None, 7, 7, 2304)  0           ['block6c_expand_bn[0][0]']      \n"," ivation)                                                                                         \n","                                                                                                  \n"," block6c_dwconv2 (DepthwiseConv  (None, 7, 7, 2304)  20736       ['block6c_expand_activation[0][0]\n"," 2D)                                                             ']                               \n","                                                                                                  \n"," block6c_bn (BatchNormalization  (None, 7, 7, 2304)  9216        ['block6c_dwconv2[0][0]']        \n"," )                                                                                                \n","                                                                                                  \n"," block6c_activation (Activation  (None, 7, 7, 2304)  0           ['block6c_bn[0][0]']             \n"," )                                                                                                \n","                                                                                                  \n"," block6c_se_squeeze (GlobalAver  (None, 2304)        0           ['block6c_activation[0][0]']     \n"," agePooling2D)                                                                                    \n","                                                                                                  \n"," block6c_se_reshape (Reshape)   (None, 1, 1, 2304)   0           ['block6c_se_squeeze[0][0]']     \n","                                                                                                  \n"," block6c_se_reduce (Conv2D)     (None, 1, 1, 96)     221280      ['block6c_se_reshape[0][0]']     \n","                                                                                                  \n"," block6c_se_expand (Conv2D)     (None, 1, 1, 2304)   223488      ['block6c_se_reduce[0][0]']      \n","                                                                                                  \n"," block6c_se_excite (Multiply)   (None, 7, 7, 2304)   0           ['block6c_activation[0][0]',     \n","                                                                  'block6c_se_expand[0][0]']      \n","                                                                                                  \n"," block6c_project_conv (Conv2D)  (None, 7, 7, 384)    884736      ['block6c_se_excite[0][0]']      \n","                                                                                                  \n"," block6c_project_bn (BatchNorma  (None, 7, 7, 384)   1536        ['block6c_project_conv[0][0]']   \n"," lization)                                                                                        \n","                                                                                                  \n"," block6c_add (Add)              (None, 7, 7, 384)    0           ['block6c_project_bn[0][0]',     \n","                                                                  'block6b_add[0][0]']            \n","                                                                                                  \n"," block6d_expand_conv (Conv2D)   (None, 7, 7, 2304)   884736      ['block6c_add[0][0]']            \n","                                                                                                  \n"," block6d_expand_bn (BatchNormal  (None, 7, 7, 2304)  9216        ['block6d_expand_conv[0][0]']    \n"," ization)                                                                                         \n","                                                                                                  \n"," block6d_expand_activation (Act  (None, 7, 7, 2304)  0           ['block6d_expand_bn[0][0]']      \n"," ivation)                                                                                         \n","                                                                                                  \n"," block6d_dwconv2 (DepthwiseConv  (None, 7, 7, 2304)  20736       ['block6d_expand_activation[0][0]\n"," 2D)                                                             ']                               \n","                                                                                                  \n"," block6d_bn (BatchNormalization  (None, 7, 7, 2304)  9216        ['block6d_dwconv2[0][0]']        \n"," )                                                                                                \n","                                                                                                  \n"," block6d_activation (Activation  (None, 7, 7, 2304)  0           ['block6d_bn[0][0]']             \n"," )                                                                                                \n","                                                                                                  \n"," block6d_se_squeeze (GlobalAver  (None, 2304)        0           ['block6d_activation[0][0]']     \n"," agePooling2D)                                                                                    \n","                                                                                                  \n"," block6d_se_reshape (Reshape)   (None, 1, 1, 2304)   0           ['block6d_se_squeeze[0][0]']     \n","                                                                                                  \n"," block6d_se_reduce (Conv2D)     (None, 1, 1, 96)     221280      ['block6d_se_reshape[0][0]']     \n","                                                                                                  \n"," block6d_se_expand (Conv2D)     (None, 1, 1, 2304)   223488      ['block6d_se_reduce[0][0]']      \n","                                                                                                  \n"," block6d_se_excite (Multiply)   (None, 7, 7, 2304)   0           ['block6d_activation[0][0]',     \n","                                                                  'block6d_se_expand[0][0]']      \n","                                                                                                  \n"," block6d_project_conv (Conv2D)  (None, 7, 7, 384)    884736      ['block6d_se_excite[0][0]']      \n","                                                                                                  \n"," block6d_project_bn (BatchNorma  (None, 7, 7, 384)   1536        ['block6d_project_conv[0][0]']   \n"," lization)                                                                                        \n","                                                                                                  \n"," block6d_add (Add)              (None, 7, 7, 384)    0           ['block6d_project_bn[0][0]',     \n","                                                                  'block6c_add[0][0]']            \n","                                                                                                  \n"," block6e_expand_conv (Conv2D)   (None, 7, 7, 2304)   884736      ['block6d_add[0][0]']            \n","                                                                                                  \n"," block6e_expand_bn (BatchNormal  (None, 7, 7, 2304)  9216        ['block6e_expand_conv[0][0]']    \n"," ization)                                                                                         \n","                                                                                                  \n"," block6e_expand_activation (Act  (None, 7, 7, 2304)  0           ['block6e_expand_bn[0][0]']      \n"," ivation)                                                                                         \n","                                                                                                  \n"," block6e_dwconv2 (DepthwiseConv  (None, 7, 7, 2304)  20736       ['block6e_expand_activation[0][0]\n"," 2D)                                                             ']                               \n","                                                                                                  \n"," block6e_bn (BatchNormalization  (None, 7, 7, 2304)  9216        ['block6e_dwconv2[0][0]']        \n"," )                                                                                                \n","                                                                                                  \n"," block6e_activation (Activation  (None, 7, 7, 2304)  0           ['block6e_bn[0][0]']             \n"," )                                                                                                \n","                                                                                                  \n"," block6e_se_squeeze (GlobalAver  (None, 2304)        0           ['block6e_activation[0][0]']     \n"," agePooling2D)                                                                                    \n","                                                                                                  \n"," block6e_se_reshape (Reshape)   (None, 1, 1, 2304)   0           ['block6e_se_squeeze[0][0]']     \n","                                                                                                  \n"," block6e_se_reduce (Conv2D)     (None, 1, 1, 96)     221280      ['block6e_se_reshape[0][0]']     \n","                                                                                                  \n"," block6e_se_expand (Conv2D)     (None, 1, 1, 2304)   223488      ['block6e_se_reduce[0][0]']      \n","                                                                                                  \n"," block6e_se_excite (Multiply)   (None, 7, 7, 2304)   0           ['block6e_activation[0][0]',     \n","                                                                  'block6e_se_expand[0][0]']      \n","                                                                                                  \n"," block6e_project_conv (Conv2D)  (None, 7, 7, 384)    884736      ['block6e_se_excite[0][0]']      \n","                                                                                                  \n"," block6e_project_bn (BatchNorma  (None, 7, 7, 384)   1536        ['block6e_project_conv[0][0]']   \n"," lization)                                                                                        \n","                                                                                                  \n"," block6e_add (Add)              (None, 7, 7, 384)    0           ['block6e_project_bn[0][0]',     \n","                                                                  'block6d_add[0][0]']            \n","                                                                                                  \n"," block6f_expand_conv (Conv2D)   (None, 7, 7, 2304)   884736      ['block6e_add[0][0]']            \n","                                                                                                  \n"," block6f_expand_bn (BatchNormal  (None, 7, 7, 2304)  9216        ['block6f_expand_conv[0][0]']    \n"," ization)                                                                                         \n","                                                                                                  \n"," block6f_expand_activation (Act  (None, 7, 7, 2304)  0           ['block6f_expand_bn[0][0]']      \n"," ivation)                                                                                         \n","                                                                                                  \n"," block6f_dwconv2 (DepthwiseConv  (None, 7, 7, 2304)  20736       ['block6f_expand_activation[0][0]\n"," 2D)                                                             ']                               \n","                                                                                                  \n"," block6f_bn (BatchNormalization  (None, 7, 7, 2304)  9216        ['block6f_dwconv2[0][0]']        \n"," )                                                                                                \n","                                                                                                  \n"," block6f_activation (Activation  (None, 7, 7, 2304)  0           ['block6f_bn[0][0]']             \n"," )                                                                                                \n","                                                                                                  \n"," block6f_se_squeeze (GlobalAver  (None, 2304)        0           ['block6f_activation[0][0]']     \n"," agePooling2D)                                                                                    \n","                                                                                                  \n"," block6f_se_reshape (Reshape)   (None, 1, 1, 2304)   0           ['block6f_se_squeeze[0][0]']     \n","                                                                                                  \n"," block6f_se_reduce (Conv2D)     (None, 1, 1, 96)     221280      ['block6f_se_reshape[0][0]']     \n","                                                                                                  \n"," block6f_se_expand (Conv2D)     (None, 1, 1, 2304)   223488      ['block6f_se_reduce[0][0]']      \n","                                                                                                  \n"," block6f_se_excite (Multiply)   (None, 7, 7, 2304)   0           ['block6f_activation[0][0]',     \n","                                                                  'block6f_se_expand[0][0]']      \n","                                                                                                  \n"," block6f_project_conv (Conv2D)  (None, 7, 7, 384)    884736      ['block6f_se_excite[0][0]']      \n","                                                                                                  \n"," block6f_project_bn (BatchNorma  (None, 7, 7, 384)   1536        ['block6f_project_conv[0][0]']   \n"," lization)                                                                                        \n","                                                                                                  \n"," block6f_add (Add)              (None, 7, 7, 384)    …
eeze (GlobalAver  (None, 2304)        0           ['block6t_activation[0][0]']     \n"," agePooling2D)                                                                                    \n","                                                                                                  \n"," block6t_se_reshape (Reshape)   (None, 1, 1, 2304)   0           ['block6t_se_squeeze[0][0]']     \n","                                                                                                  \n"," block6t_se_reduce (Conv2D)     (None, 1, 1, 96)     221280      ['block6t_se_reshape[0][0]']     \n","                                                                                                  \n"," block6t_se_expand (Conv2D)     (None, 1, 1, 2304)   223488      ['block6t_se_reduce[0][0]']      \n","                                                                                                  \n"," block6t_se_excite (Multiply)   (None, 7, 7, 2304)   0           ['block6t_activation[0][0]',     \n","                                                                  'block6t_se_expand[0][0]']      \n","                                                                                                  \n"," block6t_project_conv (Conv2D)  (None, 7, 7, 384)    884736      ['block6t_se_excite[0][0]']      \n","                                                                                                  \n"," block6t_project_bn (BatchNorma  (None, 7, 7, 384)   1536        ['block6t_project_conv[0][0]']   \n"," lization)                                                                                        \n","                                                                                                  \n"," block6t_add (Add)              (None, 7, 7, 384)    0           ['block6t_project_bn[0][0]',     \n","                                                                  'block6s_add[0][0]']            \n","                                                                                                  \n"," block6u_expand_conv (Conv2D)   (None, 7, 7, 2304)   884736      ['block6t_add[0][0]']            \n","                                                                                                  \n"," block6u_expand_bn (BatchNormal  (None, 7, 7, 2304)  9216        ['block6u_expand_conv[0][0]']    \n"," ization)                                                                                         \n","                                                                                                  \n"," block6u_expand_activation (Act  (None, 7, 7, 2304)  0           ['block6u_expand_bn[0][0]']      \n"," ivation)                                                                                         \n","                                                                                                  \n"," block6u_dwconv2 (DepthwiseConv  (None, 7, 7, 2304)  20736       ['block6u_expand_activation[0][0]\n"," 2D)                                                             ']                               \n","                                                                                                  \n"," block6u_bn (BatchNormalization  (None, 7, 7, 2304)  9216        ['block6u_dwconv2[0][0]']        \n"," )                                                                                                \n","                                                                                                  \n"," block6u_activation (Activation  (None, 7, 7, 2304)  0           ['block6u_bn[0][0]']             \n"," )                                                                                                \n","                                                                                                  \n"," block6u_se_squeeze (GlobalAver  (None, 2304)        0           ['block6u_activation[0][0]']     \n"," agePooling2D)                                                                                    \n","                                                                                                  \n"," block6u_se_reshape (Reshape)   (None, 1, 1, 2304)   0           ['block6u_se_squeeze[0][0]']     \n","                                                                                                  \n"," block6u_se_reduce (Conv2D)     (None, 1, 1, 96)     221280      ['block6u_se_reshape[0][0]']     \n","                                                                                                  \n"," block6u_se_expand (Conv2D)     (None, 1, 1, 2304)   223488      ['block6u_se_reduce[0][0]']      \n","                                                                                                  \n"," block6u_se_excite (Multiply)   (None, 7, 7, 2304)   0           ['block6u_activation[0][0]',     \n","                                                                  'block6u_se_expand[0][0]']      \n","                                                                                                  \n"," block6u_project_conv (Conv2D)  (None, 7, 7, 384)    884736      ['block6u_se_excite[0][0]']      \n","                                                                                                  \n"," block6u_project_bn (BatchNorma  (None, 7, 7, 384)   1536        ['block6u_project_conv[0][0]']   \n"," lization)                                                                                        \n","                                                                                                  \n"," block6u_add (Add)              (None, 7, 7, 384)    0           ['block6u_project_bn[0][0]',     \n","                                                                  'block6t_add[0][0]']            \n","                                                                                                  \n"," block6v_expand_conv (Conv2D)   (None, 7, 7, 2304)   884736      ['block6u_add[0][0]']            \n","                                                                                                  \n"," block6v_expand_bn (BatchNormal  (None, 7, 7, 2304)  9216        ['block6v_expand_conv[0][0]']    \n"," ization)                                                                                         \n","                                                                                                  \n"," block6v_expand_activation (Act  (None, 7, 7, 2304)  0           ['block6v_expand_bn[0][0]']      \n"," ivation)                                                                                         \n","                                                                                                  \n"," block6v_dwconv2 (DepthwiseConv  (None, 7, 7, 2304)  20736       ['block6v_expand_activation[0][0]\n"," 2D)                                                             ']                               \n","                                                                                                  \n"," block6v_bn (BatchNormalization  (None, 7, 7, 2304)  9216        ['block6v_dwconv2[0][0]']        \n"," )                                                                                                \n","                                                                                                  \n"," block6v_activation (Activation  (None, 7, 7, 2304)  0           ['block6v_bn[0][0]']             \n"," )                                                                                                \n","                                                                                                  \n"," block6v_se_squeeze (GlobalAver  (None, 2304)        0           ['block6v_activation[0][0]']     \n"," agePooling2D)                                                                                    \n","                                                                                                  \n"," block6v_se_reshape (Reshape)   (None, 1, 1, 2304)   0           ['block6v_se_squeeze[0][0]']     \n","                                                                                                  \n"," block6v_se_reduce (Conv2D)     (None, 1, 1, 96)     221280      ['block6v_se_reshape[0][0]']     \n","                                                                                                  \n"," block6v_se_expand (Conv2D)     (None, 1, 1, 2304)   223488      ['block6v_se_reduce[0][0]']      \n","                                                                                                  \n"," block6v_se_excite (Multiply)   (None, 7, 7, 2304)   0           ['block6v_activation[0][0]',     \n","                                                                  'block6v_se_expand[0][0]']      \n","                                                                                                  \n"," block6v_project_conv (Conv2D)  (None, 7, 7, 384)    884736      ['block6v_se_excite[0][0]']      \n","                                                                                                  \n"," block6v_project_bn (BatchNorma  (None, 7, 7, 384)   1536        ['block6v_project_conv[0][0]']   \n"," lization)                                                                                        \n","                                                                                                  \n"," block6v_add (Add)              (None, 7, 7, 384)    0           ['block6v_project_bn[0][0]',     \n","                                                                  'block6u_add[0][0]']            \n","                                                                                                  \n"," block6w_expand_conv (Conv2D)   (None, 7, 7, 2304)   884736      ['block6v_add[0][0]']            \n","                                                                                                  \n"," block6w_expand_bn (BatchNormal  (None, 7, 7, 2304)  9216        ['block6w_expand_conv[0][0]']    \n"," ization)                                                                                         \n","                                                                                                  \n"," block6w_expand_activation (Act  (None, 7, 7, 2304)  0           ['block6w_expand_bn[0][0]']      \n"," ivation)                                                                                         \n","                                                                                                  \n"," block6w_dwconv2 (DepthwiseConv  (None, 7, 7, 2304)  20736       ['block6w_expand_activation[0][0]\n"," 2D)                                                             ']                               \n","                                                                                                  \n"," block6w_bn (BatchNormalization  (None, 7, 7, 2304)  9216        ['block6w_dwconv2[0][0]']        \n"," )                                                                                                \n","                                                                                                  \n"," block6w_activation (Activation  (None, 7, 7, 2304)  0           ['block6w_bn[0][0]']             \n"," )                                                                                                \n","                                                                                                  \n"," block6w_se_squeeze (GlobalAver  (None, 2304)        0           ['block6w_activation[0][0]']     \n"," agePooling2D)                                                                                    \n","                                                                                                  \n"," block6w_se_reshape (Reshape)   (None, 1, 1, 2304)   0           ['block6w_se_squeeze[0][0]']     \n","                                                                                                  \n"," block6w_se_reduce (Conv2D)     (None, 1, 1, 96)     221280      ['block6w_se_reshape[0][0]']     \n","                                                                                                  \n"," block6w_se_expand (Conv2D)     (None, 1, 1, 2304)   223488      ['block6w_se_reduce[0][0]']      \n","                                                                                                  \n"," block6w_se_excite (Multiply)   (None, 7, 7, 2304)   0           ['block6w_activation[0][0]',     \n","                                                                  'block6w_se_expand[0][0]']      \n","                                                                                                  \n"," block6w_project_conv (Conv2D)  (None, 7, 7, 384)    884736      ['block6w_se_excite[0][0]']      \n","                                                                                                  \n"," block6w_project_bn (BatchNorma  (None, 7, 7, 384)   1536        ['block6w_project_conv[0][0]']   \n"," lization)                                                                                        \n","                                                                                                  \n"," block6w_add (Add)              (None, 7, 7, 384)    0           ['block6w_project_bn[0][0]',     \n","                                                                  'block6v_add[0][0]']            \n","                                                                                                  \n"," block6x_expand_conv (Conv2D)   (None, 7, 7, 2304)   884736      ['block6w_add[0][0]']            \n","                                                                                                  \n"," block6x_expand_bn (BatchNormal  (None, 7, 7, 2304)  9216        ['block6x_expand_conv[0][0]']    \n"," ization)                                                                                         \n","                                                                                                  \n"," block6x_expand_activation (Act  (None, 7, 7, 2304)  0           ['block6x_expand_bn[0][0]']      \n"," ivation)                                                                                         \n","                                                                                                  \n"," block6x_dwconv2 (DepthwiseConv  (None, 7, 7, 2304)  20736       ['block6x_expand_activation[0][0]\n"," 2D)                                                             ']                               \n","                                                                                                  \n"," block6x_bn (BatchNormalization  (None, 7, 7, 2304)  9216        ['block6x_dwconv2[0][0]']        \n"," )                                                                                                \n","                                                                                                  \n"," block6x_activation (Activation  (None, 7, 7, 2304)  0           ['block6x_bn[0][0]']             \n"," )                                                                                                \n","                                                                                                  \n"," block6x_se_squeeze (GlobalAver  (None, 2304)        0           ['block6x_activation[0][0]']     \n"," agePooling2D)                                                                                    \n","                                                                                                  \n"," block6x_se_reshape (Reshape)   (None, 1, 1, 2304)   0           ['block6x_se_squeeze[0][0]']     \n","                                                                                                  \n"," block6x_se_reduce (Conv2D)     (None, 1, 1, 96)     221280      ['block6x_se_reshape[0][0]']     \n","                                                                                                  \n"," block6x_se_expand (Conv2D)     (None, 1, 1, 2304)   223488      ['block6x_se_reduce[0][0]']      \n","                                                                                                  \n"," block6x_se_excite (Multiply)   (None, 7, 7, 2304)   0           ['block6x_activation[0][0]',     \n","                                                                  'block6x_se_expand[0][0]']      \n","                                                                                                  \n"," block6x_project_conv (Conv2D)  (None, 7, 7, 384)    884736      ['block6x_se_excite[0][0]']      \n","                                                                                                  \n"," block6x_project_bn (BatchNorma  (None, 7, 7, 384)   1536        ['block6x_project_conv[0][0]']   \n"," lization)                                                                                        \n","                                                                                                  \n"," block6x_add (Add)              (None, 7, 7, 384)    0           ['block6x_project_bn[0][0]',     \n","                                                                  'block6w_add[0][0]']            \n","                                                                                                  \n"," block6y_expand_conv (Conv2D)   (None, 7, 7, 2304)   884736      ['block6x_add[0][0]']            \n","                                                                                                  \n"," block6y_expand_bn (BatchNormal  (None, 7, 7, 2304)  9216        ['block6y_expand_conv[0][0]']    \n"," ization)                                                                                         \n","                                                                                                  \n"," block6y_expand_activation (Act  (None, 7, 7, 2304)  0           ['block6y_expand_bn[0][0]']      \n"," ivation)                                                                                         \n","                                                                                                  \n"," block6y_dwconv2 (DepthwiseConv  (None, 7, 7, 2304)  20736       ['block6y_expand_activation[0][0]\n"," 2D)                                                             ']                               \n","                                                                                                  \n"," block6y_bn (BatchNormalization  (None, 7, 7, 2304)  9216        ['block6y_dwconv2[0][0]']        \n"," )                                                                                                \n","                                                                                                  \n"," block6y_activation (Activation  (None, 7, 7, 2304)  0           ['block6y_bn[0][0]']             \n"," )                                                                                                \n","                                                                                                  \n"," block6y_se_squeeze (GlobalAver  (None, 2304)        0           ['block6y_activation[0][0]']     \n"," agePooling2D)                                                                                    \n","                                                                                                  \n"," block6y_se_reshape (Reshape)   (None, 1, 1, 2304)   0           ['block6y_se_squeeze[0][0]']     \n","                                                                                                  \n"," block6y_se_reduce (Conv2D)     (None, 1, 1, 96)     221280      ['block6y_se_reshape[0][0]']     \n","                                                                                                  \n"," block6y_se_expand (Conv2D)     (None, 1, 1, 2304)   223488      ['block6y_se_reduce[0][0]']      \n","                                                                                                  \n"," block6y_se_excite (Multiply)   (None, 7, 7, 2304)   0           ['block6y_activation[0][0]',     \n","                                                                  'block6y_se_expand[0][0]']      \n","                                                                                                  \n"," block6y_project_conv (Conv2D)  (None, 7, 7, 384)    884736      ['block6y_se_excite[0][0]']      \n","                                                                                                  \n"," block6y_project_bn (BatchNorma  (None, 7, 7, 384)   1536        ['block6y_project_conv[0][0]']   \n"," lization)                                                                                        \n","                                                                                                  \n"," block6y_add (Add)              (None, 7, 7, 384)    0           ['block6y_project_bn[0][0]',     \n","                                                                  'block6x_add[0][0]']            \n","                                                                                                  \n"," block7a_expand_conv (Conv2D)   (None, 7, 7, 2304)   884736      ['block6y_add[0][0]']            \n","                                                                                                  \n"," block7a_expand_bn (BatchNormal  (None, 7, 7, 2304)  9216        ['block7a_expand_conv[0][0]']    \n"," ization)                                                                                         \n","                                                                                                  \n"," block7a_expand_activation (Act  (None, 7, 7, 2304)  0           ['block7a_expand_bn[0][0]']      \n"," ivation)                                                                                         \n","                                                                                                  \n"," block7a_dwconv2 (DepthwiseConv  (None, 7, 7, 2304)  20736       ['block7a_expand_activation[0][0]\n"," 2D)                                                             ']                               \n","                                                                                                  \n"," block7a_bn (BatchNormalization  (None, 7, 7, 2304)  9216        ['block7a_dwconv2[0][0]']        \n"," )                                                                                                \n","                                                                                                  \n"," block7a_activation (Activation  (None, 7, 7, 2304)  0           ['block7a_bn[0][0]']             \n"," )                                                                                                \n","                                                                                                  \n"," block7a_se_squeeze (GlobalAver  (None, 2304)        0           ['block7a_activation[0][0]']     \n"," agePooling2D)                                                                                    \n","                                                                                                  \n"," block7a_se_reshape (Reshape)   (None, 1, 1, 2304)   0           ['block7a_se_squeeze[0][0]']     \n","                                                                                                  \n"," block7a_se_reduce (Conv2D)     (None, 1, 1, 96)     221280      ['block7a_se_reshape[0][0]']     \n","                                                                                                  \n"," block7a_se_expand (Conv2D)     (None, 1, 1, 2304)   223488      ['block7a_se_reduce[0][0]']      \n","                                                                                                  \n"," block7a_se_excite (Multiply)   (None, 7, 7, 2304)   0           ['block7a_activation[0][0]',     \n","                                                                  'block7a_se_expand[0][0]']      \n","                                                                                                  \n"," block7a_project_conv (Conv2D)  (None, 7, 7, 640)    1474560     ['block7a_se_excite[0][0]']      \n","                                                                                                  \n"," block7a_project_bn (BatchNorma  (None, 7, 7, 640)   2560        ['block7a_project_conv[0][0]']   \n"," lization)                                                                                        \n","                                                                                                  \n"," block7b_expand_conv (Conv2D)   (None, 7, 7, 3840)   2457600     ['block7a_project_bn[0][0]']     \n","                                                                                                  \n"," block7b_expand_bn (BatchNormal  (None, 7, 7, 3840)  15360       ['block7b_expand_conv[0][0]']    \n"," ization)                                                                                         \n","                                                                                                  \n"," block7b_expand_activation (Act  (None, 7, 7, 3840)  0           ['block7b_expand_bn[0][0]']      \n"," ivation)                                                                                         \n","                                                                                                  \n"," block7b_dwconv2 (DepthwiseConv  (None, 7, 7, 3840)  34560       ['block7b_expand_activation[0][0]\n"," 2D)                                                             ']                               \n","                                                                                                  \n"," block7b_bn (BatchNormalization  (None, 7, 7, 3840)  15360       ['block7b_dwconv2[0][0]']        \n"," )                                                                                                \n","                                                                                                  \n"," block7b_activation (Activation  (None, 7, 7, 3840)  0           ['block7b_bn[0][0]']             \n"," )                                                                                                \n","                                                                                                  \n"," block7b_se_squeeze (GlobalAver  (None, 3840)        0           ['block7b_activation[0][0]']     \n"," agePooling2D)                                                                                    \n","                                                                                                  \n"," block7b_se_reshape (Reshape)   (None, 1, 1, 3840)   0           ['block7b_se_squeeze[0][0]']     \n","                                                                                                  \n"," block7b_se_reduce (Conv2D)     (None, 1, 1, 160)    614560      ['block7b_se_reshape[0][0]']     \n","                                                                                                  \n"," block7b_se_expand (Conv2D)     (None, 1, 1, 3840)   618240      ['block7b_se_reduce[0][0]']      \n","                                                                                                  \n"," block7b_se_excite (Multiply)   (None, 7, 7, 3840)   0           ['block7b_activation[0][0]',     \n","                                                                  'block7b_se_expand[0][0]']      \n","                                                                                                  \n"," block7b_project_conv (Conv2D)  (None, 7, 7, 640)    2457600     ['block7b_se_excite[0][0]']      \n","                                                                                                  \n"," block7b_project_bn (BatchNorma  (None, 7, 7, 640)   2560        ['block7b_project_conv[0][0]']   \n"," lization)                                                                                        \n","                                                                                                  \n"," block7b_add (Add)              (None, 7, 7, 640)    0           ['block7b_project_bn[0][0]',     \n","                                                                  'block7a_project_bn[0][0]']     \n","                                                                                                  \n"," block7c_expand_conv (Conv2D)   (None, 7, 7, 3840)   2457600     ['block7b_add[0][0]']            \n","                                                                                                  \n"," block7c_expand_bn (BatchNormal  (None, 7, 7, 3840)  15360       ['block7c_expand_conv[0][0]']    \n"," ization)                                                                                         \n","                                                                                                  \n"," block7c_expand_activation (Act  (None, 7, 7, 3840)  0           ['block7c_expand_bn[0][0]']      \n"," ivation)                                                                                         \n","                                                                                                  \n"," block7c_dwconv2 (DepthwiseConv  (None, 7, 7, 3840)  34560       ['block7c_expand_activation[0][0]\n"," 2D)                                                             ']                               \n","                                                                                                  \n"," block7c_bn (BatchNormalization  (None, 7, 7, 3840)  15360       ['block7c_dwconv2[0][0]']        \n"," )                                                                                                \n","                                                                                                  \n"," block7c_activation (Activation  (None, 7, 7, 3840)  0           ['block7c_bn[0][0]']             \n"," )                                                                                                \n","                                                                                                  \n"," block7c_se_squeeze (GlobalAver  (None, 3840)        0           ['block7c_activation[0][0]']     \n"," agePooling2D)                                                                                    \n","                                                                                                  \n"," block7c_se_reshape (Reshape)   (None, 1, 1, 3840)   0           ['block7c_se_squeeze[0][0]']     \n","                                                                                                  \n"," block7c_se_reduce (Conv2D)     (None, 1, 1, 160)    614560      ['block7c_se_reshape[0][0]']     \n","                                                                                                  \n"," block7c_se_expand (Conv2D)     (None, 1, 1, 3840)   618240      ['block7c_se_reduce[0][0]']      \n","                                                                                                  \n"," block7c_se_excite (Multiply)   (None, 7, 7, 3840)   0           ['block7c_activation[0][0]',     \n","                                                                  'block7c_se_expand[0][0]']      \n","                                                                                                  \n"," block7c_project_conv (Conv2D)  (None, 7, 7, 640)    2457600     ['block7c_se_excite[0][0]']      \n","                                                                                                  \n"," block7c_project_bn (BatchNorma  (None, 7, 7, 640)   2560        ['block7c_project_conv[0][0]']   \n"," lization)                                                                                        \n","                                                                                                  \n"," block7c_add (Add)              (None, 7, 7, 640)    0           ['block7c_project_bn[0][0]',     \n","                                                                  'block7b_add[0][0]']            \n","                                                                                                  \n"," block7d_expand_conv (Conv2D)   (None, 7, 7, 3840)   2457600     ['block7c_add[0][0]']            \n","                                                                                                  \n"," block7d_expand_bn (BatchNormal  (None, 7, 7, 3840)  15360       ['block7d_expand_conv[0][0]']    \n"," ization)                                                                                         \n","                                                                                                  \n"," block7d_expand_activation (Act  (None, 7, 7, 3840)  0           ['block7d_expand_bn[0][0]']      \n"," ivation)                                                                                         \n","                                                                                                  \n"," block7d_dwconv2 (DepthwiseConv  (None, 7, 7, 3840)  34560       ['block7d_expand_activation[0][0]\n"," 2D)                                                             ']                               \n","                                                                                                  \n"," block7d_bn (BatchNormalization  (None, 7, 7, 3840)  15360       ['block7d_dwconv2[0][0]']        \n"," )                                                                                                \n","                                                                                                  \n"," block7d_activation (Activation  (None, 7, 7, 3840)  0           ['block7d_bn[0][0]']             \n"," )                                                                                                \n","                                                                                                  \n"," block7d_se_squeeze (GlobalAver  (None, 3840)        0           ['block7d_activation[0][0]']     \n"," agePooling2D)                                                                                    \n","                                                                                                  \n"," block7d_se_reshape (Reshape)   (None, 1, 1, 3840)   0           ['block7d_se_squeeze[0][0]']     \n","                                                                                                  \n"," block7d_se_reduce (Conv2D)     (None, 1, 1, 160)    614560      ['block7d_se_reshape[0][0]']     \n","                                                                                                  \n"," block7d_se_expand (Conv2D)     (None, 1, 1, 3840)   618240      ['block7d_se_reduce[0][0]']      \n","                                                                                                  \n"," block7d_se_excite (Multiply)   (None, 7, 7, 3840)   0           ['block7d_activation[0][0]',     \n","                                                                  'block7d_se_expand[0][0]']      \n","                                                                                                  \n"," block7d_project_conv (Conv2D)  (None, 7, 7, 640)    2457600     ['block7d_se_excite[0][0]']      \n","                                                                                                  \n"," block7d_project_bn (BatchNorma  (None, 7, 7, 640)   2560        ['block7d_project_conv[0][0]']   \n"," lization)                                                                                        \n","                                                                                                  \n"," block7d_add (Add)              (None, 7, 7, 640)    0           ['block7d_project_bn[0][0]',     \n","                                                                  'block7c_add[0][0]']            \n","                                                                                                  \n"," block7e_expand_conv (Conv2D)   (None, 7, 7, 3840)   2457600     ['block7d_add[0][0]']            \n","                                                                                                  \n"," block7e_expand_bn (BatchNormal  (None, 7, 7, 3840)  15360       ['block7e_expand_conv[0][0]']    \n"," ization)                                                                                         \n","                                                                                                  \n"," block7e_expand_activation (Act  (None, 7, 7, 3840)  0           ['block7e_expand_bn[0][0]']      \n"," ivation)                                                                                         \n","                                                                                                  \n"," block7e_dwconv2 (DepthwiseConv  (None, 7, 7, 3840)  34560       ['block7e_expand_activation[0][0]\n"," 2D)                                                             ']                               \n","                                                                                                  \n"," block7e_bn (BatchNormalization  (None, 7, 7, 3840)  15360       ['block7e_dwconv2[0][0]']        \n"," )                                                                                                \n","                                                                                                  \n"," block7e_activation (Activation  (None, 7, 7, 3840)  0           ['block7e_bn[0][0]']             \n"," )                                                                                                \n","                                                                                                  \n"," block7e_se_squeeze (GlobalAver  (None, 3840)        0           ['block7e_activation[0][0]']     \n"," agePooling2D)                                                                                    \n","                                                                                                  \n"," block7e_se_reshape (Reshape)   (None, 1, 1, 3840)   0           ['block7e_se_squeeze[0][0]']     \n","                                                                                                  \n"," block7e_se_reduce (Conv2D)     (None, 1, 1, 160)    614560      ['block7e_se_reshape[0][0]']     \n","                                                                                                  \n"," block7e_se_expand (Conv2D)     (None, 1, 1, 3840)   618240      ['block7e_se_reduce[0][0]']      \n","                                                                                                  \n"," block7e_se_excite (Multiply)   (None, 7, 7, 3840)   0           ['block7e_activation[0][0]',     \n","                                                                  'block7e_se_expand[0][0]']      \n","                                                                                                  \n"," block7e_project_conv (Conv2D)  (None, 7, 7, 640)    2457600     ['block7e_se_excite[0][0]']      \n","                                                                                                  \n"," block7e_project_bn (BatchNorma  (None, 7, 7, 640)   2560        ['block7e_project_conv[0][0]']   \n"," lization)                                                                                        \n","                                                                                                  \n"," block7e_add (Add)              (None, 7, 7, 640)    0           ['block7e_project_bn[0][0]',     \n","                                                                  'block7d_add[0][0]']            \n","                                                                                                  \n"," block7f_expand_conv (Conv2D)   (None, 7, 7, 3840)   2457600     ['block7e_add[0][0]']            \n","                                                                                                  \n"," block7f_expand_bn (BatchNormal  (None, 7, 7, 3840)  15360       ['block7f_expand_conv[0][0]']    \n"," ization)                                                                                         \n","                                                                                                  \n"," block7f_expand_activation (Act  (None, 7, 7, 3840)  0           ['block7f_expand_bn[0][0]']      \n"," ivation)                                                                                         \n","                                                                                                  \n"," block7f_dwconv2 (DepthwiseConv  (None, 7, 7, 3840)  34560       ['block7f_expand_activation[0][0]\n"," 2D)                                                             ']                               \n","                                                                                                  \n"," block7f_bn (BatchNormalization  (None, 7, 7, 3840)  15360       ['block7f_dwconv2[0][0]']        \n"," )                                                                                                \n","                                                                                                  \n"," block7f_activation (Activation  (None, 7, 7, 3840)  0           ['block7f_bn[0][0]']             \n"," )                                                                                                \n","                                                                                                  \n"," block7f_se_squeeze (GlobalAver  (None, 3840)        0           ['block7f_activation[0][0]']     \n"," agePooling2D)                                                                                    \n","                                                                                                  \n"," block7f_se_reshape (Reshape)   (None, 1, 1, 3840)   0           ['block7f_se_squeeze[0][0]']     \n","                                                                                                  \n"," block7f_se_reduce (Conv2D)     (None, 1, 1, 160)    614560      ['block7f_se_reshape[0][0]']     \n","                                                                                                  \n"," block7f_se_expand (Conv2D)     (None, 1, 1, 3840)   618240      ['block7f_se_reduce[0][0]']      \n","                                                                                                  \n"," block7f_se_excite (Multiply)   (None, 7, 7, 3840)   0           ['block7f_activation[0][0]',     \n","                                                                  'block7f_se_expand[0][0]']      \n","                                                                                                  \n"," block7f_project_conv (Conv2D)  (None, 7, 7, 640)    2457600     ['block7f_se_excite[0][0]']      \n","                                                                                                  \n"," block7f_project_bn (BatchNorma  (None, 7, 7, 640)   2560        ['block7f_project_conv[0][0]']   \n"," lization)                                                                                        \n","                                                                                                  \n"," block7f_add (Add)              (None, 7, 7, 640)    0           ['block7f_project_bn[0][0]',     \n","                                                                  'block7e_add[0][0]']            \n","                                                                                                  \n"," block7g_expand_conv (Conv2D)   (None, 7, 7, 3840)   2457600     ['block7f_add[0][0]']            \n","                                                                                                  \n"," block7g_expand_bn (BatchNormal  (None, 7, 7, 3840)  15360       ['block7g_expand_conv[0][0]']    \n"," ization)                                                                                         \n","                                                                                                  \n"," block7g_expand_activation (Act  (None, 7, 7, 3840)  0           ['block7g_expand_bn[0][0]']      \n"," ivation)                                                                                         \n","                                                                                                  \n"," block7g_dwconv2 (DepthwiseConv  (None, 7, 7, 3840)  34560       ['block7g_expand_activation[0][0]\n"," 2D)                                                             ']                               \n","                                                                                                  \n"," block7g_bn (BatchNormalization  (None, 7, 7, 3840)  15360       ['block7g_dwconv2[0][0]']        \n"," )                                                                                                \n","                                                                                                  \n"," block7g_activation (Activation  (None, 7, 7, 3840)  0           ['block7g_bn[0][0]']             \n"," )                                                                                                \n","                                                                                                  \n"," block7g_se_squeeze (GlobalAver  (None, 3840)        0           ['block7g_activation[0][0]']     \n"," agePooling2D)                                                                                    \n","                                                                                                  \n"," block7g_se_reshape (Reshape)   (None, 1, 1, 3840)   0           ['block7g_se_squeeze[0][0]']     \n","                                                                                                  \n"," block7g_se_reduce (Conv2D)     (None, 1, 1, 160)    614560      ['block7g_se_reshape[0][0]']     \n","                                                                                                  \n"," block7g_se_expand (Conv2D)     (None, 1, 1, 3840)   618240      ['block7g_se_reduce[0][0]']      \n","                                                                                                  \n"," block7g_se_excite (Multiply)   (None, 7, 7, 3840)   0           ['block7g_activation[0][0]',     \n","                                                                  'block7g_se_expand[0][0]']      \n","                                                                                                  \n"," block7g_project_conv (Conv2D)  (None, 7, 7, 640)    2457600     ['block7g_se_excite[0][0]']      \n","                                                                                                  \n"," block7g_project_bn (BatchNorma  (None, 7, 7, 640)   2560        ['block7g_project_conv[0][0]']   \n"," lization)                                                                                        \n","                                                                                                  \n"," block7g_add (Add)              (None, 7, 7, 640)    0           ['block7g_project_bn[0][0]',     \n","                                                                  'block7f_add[0][0]']            \n","                                                                                                  \n"," top_conv (Conv2D)              (None, 7, 7, 1280)   819200      ['block7g_add[0][0]']            \n","                                                                                                  \n"," top_bn (BatchNormalization)    (None, 7, 7, 1280)   5120        ['top_conv[0][0]']               \n","                                                                                                  \n"," top_activation (Activation)    (None, 7, 7, 1280)   0           ['top_bn[0][0]']                 \n","                                                                                                  \n","==================================================================================================\n","Total params: 117,746,848\n","Trainable params: 117,234,272\n","Non-trainable params: 512,576\n","_______________________________________________
…
//localhost:8080/"},"id":"sPm5bn6EvuWr","executionInfo":{"status":"ok","timestamp":1649934457024,"user_tz":-300,"elapsed":49,"user":{"displayName":"Даниил Маненок","userId":"11391168364756720378"}},"outputId":"547ec849-6ec7-498c-a6aa-784868437752"},"execution_count":null,"outputs":[{"output_type":"stream","name":"stdout","text":["Model: \"sequential_7\"\n","_________________________________________________________________\n"," Layer (type)                Output Shape              Param #   \n","=================================================================\n"," efficientnetv2-l (Functiona  (None, 7, 7, 1280)       117746848 \n"," l)                                                              \n","                                                                 \n"," flatten_7 (Flatten)         (None, 62720)             0         \n","                                                                 \n"," dense_14 (Dense)            (None, 1024)              64226304  \n","                                                                 \n"," dropout_2 (Dropout)         (None, 1024)              0         \n","                                                                 \n"," dense_15 (Dense)            (None, 15)                15375     \n","                                                                 \n","=================================================================\n","Total params: 181,988,527\n","Trainable params: 181,475,951\n","Non-trainable params: 512,576\n","_________________________________________________________________\n"]}]},{"cell_type":"code","source":["conv_base.trainable = False"],"metadata":{"id":"
…
